…
'g', 'h', 'i', 'j', 'k', 'l', 'm', 'n', 'o', 'p', 'q', 'r', 's', 't', 'u', 'v', 'w', 'x', 'y', 'z']
INFO - 11/06/22 18:22:29 - 0:00:00 - trg vocab ['<PAD>', '<BOS>', '<EOS>', '<UNK>', '%', "'", '-', '.', '0', '1', '2', '3', '4', '5', '6', '7', '8', '9', 'A', 'B', 'C', 'D', 'E', 'G', 'H', 'I', 'J', 'K', 'L', 'M', 'N', 'O', 'P', 'R', 'S', 'T', 'V', 'X', 'Y', 'Z', 'a', 'b', 'c', 'd', 'e', 'f', 'g', 'h', 'i', 'j', 'k', 'l', 'm', 'n', 'o', 'p', 'q', 'r', 's', 't', 'u', 'v', 'w', 'x', 'y', 'z']
INFO - 11/06/22 18:22:29 - 0:00:00 - model: Transformer(
                                       (src_embed): Embedding(68, 100, padding_idx=0)
                                       (trg_embed): Embedding(66, 100, padding_idx=0)
                                       (position_embed): SinusoidalPositionalEmbedding()
                                       (encoder): TransformerEncoder(
                                         (layers): ModuleList(
                                           (0): TransformerEncoderLayer(
                                             (self_attn): MultiheadAttention(
                                               (out_proj): NonDynamicallyQuantizableLinear(in_features=100, out_features=100, bias=True)
                                             )
                                             (linear1): Linear(in_features=100, out_features=1024, bias=True)
                                             (dropout): Dropout(p=0.4, inplace=False)
                                             (linear2): Linear(in_features=1024, out_features=100, bias=True)
                                             (norm1): LayerNorm((100,), eps=1e-05, elementwise_affine=True)
                                             (norm2): LayerNorm((100,), eps=1e-05, elementwise_affine=True)
                                             (activation_dropout): Dropout(p=0.4, inplace=False)
                                           )
                                           (1): TransformerEncoderLayer(
                                             (self_attn): MultiheadAttention(
                                               (out_proj): NonDynamicallyQuantizableLinear(in_features=100, out_features=100, bias=True)
                                             )
                                             (linear1): Linear(in_features=100, out_features=1024, bias=True)
                                             (dropout): Dropout(p=0.4, inplace=False)
                                             (linear2): Linear(in_features=1024, out_features=100, bias=True)
                                             (norm1): LayerNorm((100,), eps=1e-05, elementwise_affine=True)
                                             (norm2): LayerNorm((100,), eps=1e-05, elementwise_affine=True)
                                             (activation_dropout): Dropout(p=0.4, inplace=False)
                                           )
                                           (2): TransformerEncoderLayer(
                                             (self_attn): MultiheadAttention(
                                               (out_proj): NonDynamicallyQuantizableLinear(in_features=100, out_features=100, bias=True)
                                             )
                                             (linear1): Linear(in_features=100, out_features=1024, bias=True)
                                             (dropout): Dropout(p=0.4, inplace=False)
                                             (linear2): Linear(in_features=1024, out_features=100, bias=True)
                                             (norm1): LayerNorm((100,), eps=1e-05, elementwise_affine=True)
                                             (norm2): LayerNorm((100,), eps=1e-05, elementwise_affine=True)
                                             (activation_dropout): Dropout(p=0.4, inplace=False)
                                           )
                                           (3): TransformerEncoderLayer(
                                             (self_attn): MultiheadAttention(
                                               (out_proj): NonDynamicallyQuantizableLinear(in_features=100, out_features=100, bias=True)
                                             )
                                             (linear1): Linear(in_features=100, out_features=1024, bias=True)
                                             (dropout): Dropout(p=0.4, inplace=False)
                                             (linear2): Linear(in_features=1024, out_features=100, bias=True)
                                             (norm1): LayerNorm((100,), eps=1e-05, elementwise_affine=True)
                                             (norm2): LayerNorm((100,), eps=1e-05, elementwise_affine=True)
                                             (activation_dropout): Dropout(p=0.4, inplace=False)
                                           )
                                         )
                                         (norm): LayerNorm((100,), eps=1e-05, elementwise_affine=True)
                                       )
                                       (decoder): TransformerDecoder(
                                         (layers): ModuleList(
                                           (0): TransformerDecoderLayer(
                                             (self_attn): MultiheadAttention(
                                               (out_proj): NonDynamicallyQuantizableLinear(in_features=100, out_features=100, bias=True)
                                             )
                                             (multihead_attn): MultiheadAttention(
                                               (out_proj): NonDynamicallyQuantizableLinear(in_features=100, out_features=100, bias=True)
                                             )
                                             (linear1): Linear(in_features=100, out_features=1024, bias=True)
                                             (dropout): Dropout(p=0.4, inplace=False)
                                             (linear2): Linear(in_features=1024, out_features=100, bias=True)
                                             (norm1): LayerNorm((100,), eps=1e-05, elementwise_affine=True)
                                             (norm2): LayerNorm((100,), eps=1e-05, elementwise_affine=True)
                                             (norm3): LayerNorm((100,), eps=1e-05, elementwise_affine=True)
                                             (activation_dropout): Dropout(p=0.4, inplace=False)
                                           )
                                           (1): TransformerDecoderLayer(
                                             (self_attn): MultiheadAttention(
                                               (out_proj): NonDynamicallyQuantizableLinear(in_features=100, out_features=100, bias=True)
                                             )
                                             (multihead_attn): MultiheadAttention(
                                               (out_proj): NonDynamicallyQuantizableLinear(in_features=100, out_features=100, bias=True)
                                             )
                                             (linear1): Linear(in_features=100, out_features=1024, bias=True)
                                             (dropout): Dropout(p=0.4, inplace=False)
                                             (linear2): Linear(in_features=1024, out_features=100, bias=True)
                                             (norm1): LayerNorm((100,), eps=1e-05, elementwise_affine=True)
                                             (norm2): LayerNorm((100,), eps=1e-05, elementwise_affine=True)
                                             (norm3): LayerNorm((100,), eps=1e-05, elementwise_affine=True)
                                             (activation_dropout): Dropout(p=0.4, inplace=False)
                                           )
                                           (2): TransformerDecoderLayer(
                                             (self_attn): MultiheadAttention(
                                               (out_proj): NonDynamicallyQuantizableLinear(in_features=100, out_features=100, bias=True)
                                             )
                                             (multihead_attn): MultiheadAttention(
                                               (out_proj): NonDynamicallyQuantizableLinear(in_features=100, out_features=100, bias=True)
                                             )
                                             (linear1): Linear(in_features=100, out_features=1024, bias=True)
                                             (dropout): Dropout(p=0.4, inplace=False)
                                             (linear2): Linear(in_features=1024, out_features=100, bias=True)
                                             (norm1): LayerNorm((100,), eps=1e-05, elementwise_affine=True)
                                             (norm2): LayerNorm((100,), eps=1e-05, elementwise_affine=True)
                                             (norm3): LayerNorm((100,), eps=1e-05, elementwise_affine=True)
                                             (activation_dropout): Dropout(p=0.4, inplace=False)
                                           )
                                           (3): TransformerDecoderLayer(
                                             (self_attn): MultiheadAttention(
                                               (out_proj): NonDynamicallyQuantizableLinear(in_features=100, out_features=100, bias=True)
                                             )
                                             (multihead_attn): MultiheadAttention(
                                               (out_proj): NonDynamicallyQuantizableLinear(in_features=100, out_features=100, bias=True)
                                             )
                                             (linear1): Linear(in_features=100, out_features=1024, bias=True)
                                             (dropout): Dropout(p=0.4, inplace=False)
                                             (linear2): Linear(in_features=1024, out_features=100, bias=True)
                                             (norm1): LayerNorm((100,), eps=1e-05, elementwise_affine=True)
                                             (norm2): LayerNorm((100,), eps=1e-05, elementwise_affine=True)
                                             (norm3): LayerNorm((100,), eps=1e-05, elementwise_affine=True)
                                             (activation_dropout): Dropout(p=0.4, inplace=False)
                                           )
                                         )
                                         (norm): LayerNorm((100,), eps=1e-05, elementwise_affine=True)
                                       )
                                       (final_out): Linear(in_features=100, out_features=66, bias=True)
                                       (dropout): Dropout(p=0.4, inplace=False)
                                     )
INFO - 11/06/22 18:22:29 - 0:00:00 - number of parameter 2156658
INFO - 11/06/22 18:22:32 - 0:00:03 - maximum training 20009 steps (1177 epochs)
INFO - 11/06/22 18:22:32 - 0:00:03 - evaluate every 23 epochs
INFO - 11/06/22 18:22:32 - 0:00:03 - At 0-th epoch with lr 0.000000.
…
'g', 'h', 'i', 'j', 'k', 'l', 'm', 'n', 'o', 'p', 'q', 'r', 's', 't', 'u', 'v', 'w', 'x', 'y', 'z']
INFO - 11/06/22 18:42:37 - 0:00:00 - trg vocab ['<PAD>', '<BOS>', '<EOS>', '<UNK>', '%', "'", '-', '.', '0', '1', '2', '3', '4', '5', '6', '7', '8', '9', 'A', 'B', 'C', 'D', 'E', 'G', 'H', 'I', 'J', 'K', 'L', 'M', 'N', 'O', 'P', 'R', 'S', 'T', 'V', 'X', 'Y', 'Z', 'a', 'b', 'c', 'd', 'e', 'f', 'g', 'h', 'i', 'j', 'k', 'l', 'm', 'n', 'o', 'p', 'q', 'r', 's', 't', 'u', 'v', 'w', 'x', 'y', 'z']
INFO - 11/06/22 18:42:37 - 0:00:00 - model: Transformer(
                                       (src_embed): Embedding(68, 200, padding_idx=0)
                                       (trg_embed): Embedding(66, 200, padding_idx=0)
                                       (position_embed): SinusoidalPositionalEmbedding()
                                       (encoder): TransformerEncoder(
                                         (layers): ModuleList(
                                           (0): TransformerEncoderLayer(
                                             (self_attn): MultiheadAttention(
                                               (out_proj): NonDynamicallyQuantizableLinear(in_features=200, out_features=200, bias=True)
                                             )
                                             (linear1): Linear(in_features=200, out_features=1024, bias=True)
                                             (dropout): Dropout(p=0.4, inplace=False)
                                             (linear2): Linear(in_features=1024, out_features=200, bias=True)
                                             (norm1): LayerNorm((200,), eps=1e-05, elementwise_affine=True)
                                             (norm2): LayerNorm((200,), eps=1e-05, elementwise_affine=True)
                                             (activation_dropout): Dropout(p=0.4, inplace=False)
                                           )
                                           (1): TransformerEncoderLayer(
                                             (self_attn): MultiheadAttention(
                                               (out_proj): NonDynamicallyQuantizableLinear(in_features=200, out_features=200, bias=True)
                                             )
                                             (linear1): Linear(in_features=200, out_features=1024, bias=True)
                                             (dropout): Dropout(p=0.4, inplace=False)
                                             (linear2): Linear(in_features=1024, out_features=200, bias=True)
                                             (norm1): LayerNorm((200,), eps=1e-05, elementwise_affine=True)
                                             (norm2): LayerNorm((200,), eps=1e-05, elementwise_affine=True)
                                             (activation_dropout): Dropout(p=0.4, inplace=False)
                                           )
                                           (2): TransformerEncoderLayer(
                                             (self_attn): MultiheadAttention(
                                               (out_proj): NonDynamicallyQuantizableLinear(in_features=200, out_features=200, bias=True)
                                             )
                                             (linear1): Linear(in_features=200, out_features=1024, bias=True)
                                             (dropout): Dropout(p=0.4, inplace=False)
                                             (linear2): Linear(in_features=1024, out_features=200, bias=True)
                                             (norm1): LayerNorm((200,), eps=1e-05, elementwise_affine=True)
                                             (norm2): LayerNorm((200,), eps=1e-05, elementwise_affine=True)
                                             (activation_dropout): Dropout(p=0.4, inplace=False)
                                           )
                                           (3): TransformerEncoderLayer(
                                             (self_attn): MultiheadAttention(
                                               (out_proj): NonDynamicallyQuantizableLinear(in_features=200, out_features=200, bias=True)
                                             )
                                             (linear1): Linear(in_features=200, out_features=1024, bias=True)
                                             (dropout): Dropout(p=0.4, inplace=False)
                                             (linear2): Linear(in_features=1024, out_features=200, bias=True)
                                             (norm1): LayerNorm((200,), eps=1e-05, elementwise_affine=True)
                                             (norm2): LayerNorm((200,), eps=1e-05, elementwise_affine=True)
                                             (activation_dropout): Dropout(p=0.4, inplace=False)
                                           )
                                         )
                                         (norm): LayerNorm((200,), eps=1e-05, elementwise_affine=True)
                                       )
                                       (decoder): TransformerDecoder(
                                         (layers): ModuleList(
                                           (0): TransformerDecoderLayer(
                                             (self_attn): MultiheadAttention(
                                               (out_proj): NonDynamicallyQuantizableLinear(in_features=200, out_features=200, bias=True)
                                             )
                                             (multihead_attn): MultiheadAttention(
                                               (out_proj): NonDynamicallyQuantizableLinear(in_features=200, out_features=200, bias=True)
                                             )
                                             (linear1): Linear(in_features=200, out_features=1024, bias=True)
                                             (dropout): Dropout(p=0.4, inplace=False)
                                             (linear2): Linear(in_features=1024, out_features=200, bias=True)
                                             (norm1): LayerNorm((200,), eps=1e-05, elementwise_affine=True)
                                             (norm2): LayerNorm((200,), eps=1e-05, elementwise_affine=True)
                                             (norm3): LayerNorm((200,), eps=1e-05, elementwise_affine=True)
                                             (activation_dropout): Dropout(p=0.4, inplace=False)
                                           )
                                           (1): TransformerDecoderLayer(
                                             (self_attn): MultiheadAttention(
                                               (out_proj): NonDynamicallyQuantizableLinear(in_features=200, out_features=200, bias=True)
                                             )
                                             (multihead_attn): MultiheadAttention(
                                               (out_proj): NonDynamicallyQuantizableLinear(in_features=200, out_features=200, bias=True)
                                             )
                                             (linear1): Linear(in_features=200, out_features=1024, bias=True)
                                             (dropout): Dropout(p=0.4, inplace=False)
                                             (linear2): Linear(in_features=1024, out_features=200, bias=True)
                                             (norm1): LayerNorm((200,), eps=1e-05, elementwise_affine=True)
                                             (norm2): LayerNorm((200,), eps=1e-05, elementwise_affine=True)
                                             (norm3): LayerNorm((200,), eps=1e-05, elementwise_affine=True)
                                             (activation_dropout): Dropout(p=0.4, inplace=False)
                                           )
                                           (2): TransformerDecoderLayer(
                                             (self_attn): MultiheadAttention(
                                               (out_proj): NonDynamicallyQuantizableLinear(in_features=200, out_features=200, bias=True)
                                             )
                                             (multihead_attn): MultiheadAttention(
                                               (out_proj): NonDynamicallyQuantizableLinear(in_features=200, out_features=200, bias=True)
                                             )
                                             (linear1): Linear(in_features=200, out_features=1024, bias=True)
                                             (dropout): Dropout(p=0.4, inplace=False)
                                             (linear2): Linear(in_features=1024, out_features=200, bias=True)
                                             (norm1): LayerNorm((200,), eps=1e-05, elementwise_affine=True)
                                             (norm2): LayerNorm((200,), eps=1e-05, elementwise_affine=True)
                                             (norm3): LayerNorm((200,), eps=1e-05, elementwise_affine=True)
                                             (activation_dropout): Dropout(p=0.4, inplace=False)
                                           )
                                           (3): TransformerDecoderLayer(
                                             (self_attn): MultiheadAttention(
                                               (out_proj): NonDynamicallyQuantizableLinear(in_features=200, out_features=200, bias=True)
                                             )
                                             (multihead_attn): MultiheadAttention(
                                               (out_proj): NonDynamicallyQuantizableLinear(in_features=200, out_features=200, bias=True)
                                             )
                                             (linear1): Linear(in_features=200, out_features=1024, bias=True)
                                             (dropout): Dropout(p=0.4, inplace=False)
                                             (linear2): Linear(in_features=1024, out_features=200, bias=True)
                                             (norm1): LayerNorm((200,), eps=1e-05, elementwise_affine=True)
                                             (norm2): LayerNorm((200,), eps=1e-05, elementwise_affine=True)
                                             (norm3): LayerNorm((200,), eps=1e-05, elementwise_affine=True)
                                             (activation_dropout): Dropout(p=0.4, inplace=False)
                                           )
                                         )
                                         (norm): LayerNorm((200,), eps=1e-05, elementwise_affine=True)
                                       )
                                       (final_out): Linear(in_features=200, out_features=66, bias=True)
                                       (dropout): Dropout(p=0.4, inplace=False)
                                     )
INFO - 11/06/22 18:42:37 - 0:00:00 - number of parameter 5265058
INFO - 11/06/22 18:42:40 - 0:00:03 - maximum training 20009 steps (1177 epochs)
INFO - 11/06/22 18:42:40 - 0:00:03 - evaluate every 23 epochs
INFO - 11/06/22 18:42:40 - 0:00:03 - At 0-th epoch with lr 0.000000.
…
'g', 'h', 'i', 'j', 'k', 'l', 'm', 'n', 'o', 'p', 'q', 'r', 's', 't', 'u', 'v', 'w', 'x', 'y', 'z']
INFO - 11/06/22 19:32:42 - 0:00:00 - trg vocab ['<PAD>', '<BOS>', '<EOS>', '<UNK>', '%', "'", '-', '.', '0', '1', '2', '3', '4', '5', '6', '7', '8', '9', 'A', 'B', 'C', 'D', 'E', 'G', 'H', 'I', 'J', 'K', 'L', 'M', 'N', 'O', 'P', 'R', 'S', 'T', 'V', 'X', 'Y', 'Z', 'a', 'b', 'c', 'd', 'e', 'f', 'g', 'h', 'i', 'j', 'k', 'l', 'm', 'n', 'o', 'p', 'q', 'r', 's', 't', 'u', 'v', 'w', 'x', 'y', 'z']
INFO - 11/06/22 19:32:42 - 0:00:00 - model: Transformer(
                                       (src_embed): Embedding(68, 300, padding_idx=0)
                                       (trg_embed): Embedding(66, 300, padding_idx=0)
                                       (position_embed): SinusoidalPositionalEmbedding()
                                       (encoder): TransformerEncoder(
                                         (layers): ModuleList(
                                           (0): TransformerEncoderLayer(
                                             (self_attn): MultiheadAttention(
                                               (out_proj): NonDynamicallyQuantizableLinear(in_features=300, out_features=300, bias=True)
                                             )
                                             (linear1): Linear(in_features=300, out_features=1024, bias=True)
                                             (dropout): Dropout(p=0.4, inplace=False)
                                             (linear2): Linear(in_features=1024, out_features=300, bias=True)
                                             (norm1): LayerNorm((300,), eps=1e-05, elementwise_affine=True)
                                             (norm2): LayerNorm((300,), eps=1e-05, elementwise_affine=True)
                                             (activation_dropout): Dropout(p=0.4, inplace=False)
                                           )
                                           (1): TransformerEncoderLayer(
                                             (self_attn): MultiheadAttention(
                                               (out_proj): NonDynamicallyQuantizableLinear(in_features=300, out_features=300, bias=True)
                                             )
                                             (linear1): Linear(in_features=300, out_features=1024, bias=True)
                                             (dropout): Dropout(p=0.4, inplace=False)
                                             (linear2): Linear(in_features=1024, out_features=300, bias=True)
                                             (norm1): LayerNorm((300,), eps=1e-05, elementwise_affine=True)
                                             (norm2): LayerNorm((300,), eps=1e-05, elementwise_affine=True)
                                             (activation_dropout): Dropout(p=0.4, inplace=False)
                                           )
                                           (2): TransformerEncoderLayer(
                                             (self_attn): MultiheadAttention(
                                               (out_proj): NonDynamicallyQuantizableLinear(in_features=300, out_features=300, bias=True)
                                             )
                                             (linear1): Linear(in_features=300, out_features=1024, bias=True)
                                             (dropout): Dropout(p=0.4, inplace=False)
                                             (linear2): Linear(in_features=1024, out_features=300, bias=True)
                                             (norm1): LayerNorm((300,), eps=1e-05, elementwise_affine=True)
                                             (norm2): LayerNorm((300,), eps=1e-05, elementwise_affine=True)
                                             (activation_dropout): Dropout(p=0.4, inplace=False)
                                           )
                                           (3): TransformerEncoderLayer(
                                             (self_attn): MultiheadAttention(
                                               (out_proj): NonDynamicallyQuantizableLinear(in_features=300, out_features=300, bias=True)
                                             )
                                             (linear1): Linear(in_features=300, out_features=1024, bias=True)
                                             (dropout): Dropout(p=0.4, inplace=False)
                                             (linear2): Linear(in_features=1024, out_features=300, bias=True)
                                             (norm1): LayerNorm((300,), eps=1e-05, elementwise_affine=True)
                                             (norm2): LayerNorm((300,), eps=1e-05, elementwise_affine=True)
                                             (activation_dropout): Dropout(p=0.4, inplace=False)
                                           )
                                         )
                                         (norm): LayerNorm((300,), eps=1e-05, elementwise_affine=True)
                                       )
                                       (decoder): TransformerDecoder(
                                         (layers): ModuleList(
                                           (0): TransformerDecoderLayer(
                                             (self_attn): MultiheadAttention(
                                               (out_proj): NonDynamicallyQuantizableLinear(in_features=300, out_features=300, bias=True)
                                             )
                                             (multihead_attn): MultiheadAttention(
                                               (out_proj): NonDynamicallyQuantizableLinear(in_features=300, out_features=300, bias=True)
                                             )
                                             (linear1): Linear(in_features=300, out_features=1024, bias=True)
                                             (dropout): Dropout(p=0.4, inplace=False)
                                             (linear2): Linear(in_features=1024, out_features=300, bias=True)
                                             (norm1): LayerNorm((300,), eps=1e-05, elementwise_affine=True)
                                             (norm2): LayerNorm((300,), eps=1e-05, elementwise_affine=True)
                                             (norm3): LayerNorm((300,), eps=1e-05, elementwise_affine=True)
                                             (activation_dropout): Dropout(p=0.4, inplace=False)
                                           )
                                           (1): TransformerDecoderLayer(
                                             (self_attn): MultiheadAttention(
                                               (out_proj): NonDynamicallyQuantizableLinear(in_features=300, out_features=300, bias=True)
                                             )
                                             (multihead_attn): MultiheadAttention(
                                               (out_proj): NonDynamicallyQuantizableLinear(in_features=300, out_features=300, bias=True)
                                             )
                                             (linear1): Linear(in_features=300, out_features=1024, bias=True)
                                             (dropout): Dropout(p=0.4, inplace=False)
                                             (linear2): Linear(in_features=1024, out_features=300, bias=True)
                                             (norm1): LayerNorm((300,), eps=1e-05, elementwise_affine=True)
                                             (norm2): LayerNorm((300,), eps=1e-05, elementwise_affine=True)
                                             (norm3): LayerNorm((300,), eps=1e-05, elementwise_affine=True)
                                             (activation_dropout): Dropout(p=0.4, inplace=False)
                                           )
                                           (2): TransformerDecoderLayer(
                                             (self_attn): MultiheadAttention(
                                               (out_proj): NonDynamicallyQuantizableLinear(in_features=300, out_features=300, bias=True)
                                             )
                                             (multihead_attn): MultiheadAttention(
                                               (out_proj): NonDynamicallyQuantizableLinear(in_features=300, out_features=300, bias=True)
                                             )
                                             (linear1): Linear(in_features=300, out_features=1024, bias=True)
                                             (dropout): Dropout(p=0.4, inplace=False)
                                             (linear2): Linear(in_features=1024, out_features=300, bias=True)
                                             (norm1): LayerNorm((300,), eps=1e-05, elementwise_affine=True)
                                             (norm2): LayerNorm((300,), eps=1e-05, elementwise_affine=True)
                                             (norm3): LayerNorm((300,), eps=1e-05, elementwise_affine=True)
                                             (activation_dropout): Dropout(p=0.4, inplace=False)
                                           )
                                           (3): TransformerDecoderLayer(
                                             (self_attn): MultiheadAttention(
                                               (out_proj): NonDynamicallyQuantizableLinear(in_features=300, out_features=300, bias=True)
                                             )
                                             (multihead_attn): MultiheadAttention(
                                               (out_proj): NonDynamicallyQuantizableLinear(in_features=300, out_features=300, bias=True)
                                             )
                                             (linear1): Linear(in_features=300, out_features=1024, bias=True)
                                             (dropout): Dropout(p=0.4, inplace=False)
                                             (linear2): Linear(in_features=1024, out_features=300, bias=True)
                                             (norm1): LayerNorm((300,), eps=1e-05, elementwise_affine=True)
                                             (norm2): LayerNorm((300,), eps=1e-05, elementwise_affine=True)
                                             (norm3): LayerNorm((300,), eps=1e-05, elementwise_affine=True)
                                             (activation_dropout): Dropout(p=0.4, inplace=False)
                                           )
                                         )
                                         (norm): LayerNorm((300,), eps=1e-05, elementwise_affine=True)
                                       )
                                       (final_out): Linear(in_features=300, out_features=66, bias=True)
                                       (dropout): Dropout(p=0.4, inplace=False)
                                     )
INFO - 11/06/22 19:32:42 - 0:00:00 - number of parameter 9333458
INFO - 11/06/22 19:32:45 - 0:00:03 - maximum training 20009 steps (1177 epochs)
INFO - 11/06/22 19:32:45 - 0:00:03 - evaluate every 23 epochs
INFO - 11/06/22 19:32:45 - 0:00:03 - At 0-th epoch with lr 0.000000.
…
'g', 'h', 'i', 'j', 'k', 'l', 'm', 'n', 'o', 'p', 'q', 'r', 's', 't', 'u', 'v', 'w', 'x', 'y', 'z']
INFO - 11/06/22 20:22:39 - 0:00:00 - trg vocab ['<PAD>', '<BOS>', '<EOS>', '<UNK>', '%', "'", '-', '.', '0', '1', '2', '3', '4', '5', '6', '7', '8', '9', 'A', 'B', 'C', 'D', 'E', 'G', 'H', 'I', 'J', 'K', 'L', 'M', 'N', 'O', 'P', 'R', 'S', 'T', 'V', 'X', 'Y', 'Z', 'a', 'b', 'c', 'd', 'e', 'f', 'g', 'h', 'i', 'j', 'k', 'l', 'm', 'n', 'o', 'p', 'q', 'r', 's', 't', 'u', 'v', 'w', 'x', 'y', 'z']
INFO - 11/06/22 20:22:39 - 0:00:00 - model: Transformer(
                                       (src_embed): Embedding(68, 400, padding_idx=0)
                                       (trg_embed): Embedding(66, 400, padding_idx=0)
                                       (position_embed): SinusoidalPositionalEmbedding()
                                       (encoder): TransformerEncoder(
                                         (layers): ModuleList(
                                           (0): TransformerEncoderLayer(
                                             (self_attn): MultiheadAttention(
                                               (out_proj): NonDynamicallyQuantizableLinear(in_features=400, out_features=400, bias=True)
                                             )
                                             (linear1): Linear(in_features=400, out_features=1024, bias=True)
                                             (dropout): Dropout(p=0.4, inplace=False)
                                             (linear2): Linear(in_features=1024, out_features=400, bias=True)
                                             (norm1): LayerNorm((400,), eps=1e-05, elementwise_affine=True)
                                             (norm2): LayerNorm((400,), eps=1e-05, elementwise_affine=True)
                                             (activation_dropout): Dropout(p=0.4, inplace=False)
                                           )
                                           (1): TransformerEncoderLayer(
                                             (self_attn): MultiheadAttention(
                                               (out_proj): NonDynamicallyQuantizableLinear(in_features=400, out_features=400, bias=True)
                                             )
                                             (linear1): Linear(in_features=400, out_features=1024, bias=True)
                                             (dropout): Dropout(p=0.4, inplace=False)
                                             (linear2): Linear(in_features=1024, out_features=400, bias=True)
                                             (norm1): LayerNorm((400,), eps=1e-05, elementwise_affine=True)
                                             (norm2): LayerNorm((400,), eps=1e-05, elementwise_affine=True)
                                             (activation_dropout): Dropout(p=0.4, inplace=False)
                                           )
                                           (2): TransformerEncoderLayer(
                                             (self_attn): MultiheadAttention(
                                               (out_proj): NonDynamicallyQuantizableLinear(in_features=400, out_features=400, bias=True)
                                             )
                                             (linear1): Linear(in_features=400, out_features=1024, bias=True)
                                             (dropout): Dropout(p=0.4, inplace=False)
                                             (linear2): Linear(in_features=1024, out_features=400, bias=True)
                                             (norm1): LayerNorm((400,), eps=1e-05, elementwise_affine=True)
                                             (norm2): LayerNorm((400,), eps=1e-05, elementwise_affine=True)
                                             (activation_dropout): Dropout(p=0.4, inplace=False)
                                           )
                                           (3): TransformerEncoderLayer(
                                             (self_attn): MultiheadAttention(
                                               (out_proj): NonDynamicallyQuantizableLinear(in_features=400, out_features=400, bias=True)
                                             )
                                             (linear1): Linear(in_features=400, out_features=1024, bias=True)
                                             (dropout): Dropout(p=0.4, inplace=False)
                                             (linear2): Linear(in_features=1024, out_features=400, bias=True)
                                             (norm1): LayerNorm((400,), eps=1e-05, elementwise_affine=True)
                                             (norm2): LayerNorm((400,), eps=1e-05, elementwise_affine=True)
                                             (activation_dropout): Dropout(p=0.4, inplace=False)
                                           )
                                         )
                                         (norm): LayerNorm((400,), eps=1e-05, elementwise_affine=True)
                                       )
                                       (decoder): TransformerDecoder(
                                         (layers): ModuleList(
                                           (0): TransformerDecoderLayer(
                                             (self_attn): MultiheadAttention(
                                               (out_proj): NonDynamicallyQuantizableLinear(in_features=400, out_features=400, bias=True)
                                             )
                                             (multihead_attn): MultiheadAttention(
                                               (out_proj): NonDynamicallyQuantizableLinear(in_features=400, out_features=400, bias=True)
                                             )
                                             (linear1): Linear(in_features=400, out_features=1024, bias=True)
                                             (dropout): Dropout(p=0.4, inplace=False)
                                             (linear2): Linear(in_features=1024, out_features=400, bias=True)
                                             (norm1): LayerNorm((400,), eps=1e-05, elementwise_affine=True)
                                             (norm2): LayerNorm((400,), eps=1e-05, elementwise_affine=True)
                                             (norm3): LayerNorm((400,), eps=1e-05, elementwise_affine=True)
                                             (activation_dropout): Dropout(p=0.4, inplace=False)
                                           )
                                           (1): TransformerDecoderLayer(
                                             (self_attn): MultiheadAttention(
                                               (out_proj): NonDynamicallyQuantizableLinear(in_features=400, out_features=400, bias=True)
                                             )
                                             (multihead_attn): MultiheadAttention(
                                               (out_proj): NonDynamicallyQuantizableLinear(in_features=400, out_features=400, bias=True)
                                             )
                                             (linear1): Linear(in_features=400, out_features=1024, bias=True)
                                             (dropout): Dropout(p=0.4, inplace=False)
                                             (linear2): Linear(in_features=1024, out_features=400, bias=True)
                                             (norm1): LayerNorm((400,), eps=1e-05, elementwise_affine=True)
                                             (norm2): LayerNorm((400,), eps=1e-05, elementwise_affine=True)
                                             (norm3): LayerNorm((400,), eps=1e-05, elementwise_affine=True)
                                             (activation_dropout): Dropout(p=0.4, inplace=False)
                                           )
                                           (2): TransformerDecoderLayer(
                                             (self_attn): MultiheadAttention(
                                               (out_proj): NonDynamicallyQuantizableLinear(in_features=400, out_features=400, bias=True)
                                             )
                                             (multihead_attn): MultiheadAttention(
                                               (out_proj): NonDynamicallyQuantizableLinear(in_features=400, out_features=400, bias=True)
                                             )
                                             (linear1): Linear(in_features=400, out_features=1024, bias=True)
                                             (dropout): Dropout(p=0.4, inplace=False)
                                             (linear2): Linear(in_features=1024, out_features=400, bias=True)
                                             (norm1): LayerNorm((400,), eps=1e-05, elementwise_affine=True)
                                             (norm2): LayerNorm((400,), eps=1e-05, elementwise_affine=True)
                                             (norm3): LayerNorm((400,), eps=1e-05, elementwise_affine=True)
                                             (activation_dropout): Dropout(p=0.4, inplace=False)
                                           )
                                           (3): TransformerDecoderLayer(
                                             (self_attn): MultiheadAttention(
                                               (out_proj): NonDynamicallyQuantizableLinear(in_features=400, out_features=400, bias=True)
                                             )
                                             (multihead_attn): MultiheadAttention(
                                               (out_proj): NonDynamicallyQuantizableLinear(in_features=400, out_features=400, bias=True)
                                             )
                                             (linear1): Linear(in_features=400, out_features=1024, bias=True)
                                             (dropout): Dropout(p=0.4, inplace=False)
                                             (linear2): Linear(in_features=1024, out_features=400, bias=True)
                                             (norm1): LayerNorm((400,), eps=1e-05, elementwise_affine=True)
                                             (norm2): LayerNorm((400,), eps=1e-05, elementwise_affine=True)
                                             (norm3): LayerNorm((400,), eps=1e-05, elementwise_affine=True)
                                             (activation_dropout): Dropout(p=0.4, inplace=False)
                                           )
                                         )
                                         (norm): LayerNorm((400,), eps=1e-05, elementwise_affine=True)
                                       )
                                       (final_out): Linear(in_features=400, out_features=66, bias=True)
                                       (dropout): Dropout(p=0.4, inplace=False)
                                     )
INFO - 11/06/22 20:22:39 - 0:00:00 - number of parameter 14361858
INFO - 11/06/22 20:22:42 - 0:00:03 - maximum training 20009 steps (1177 epochs)
INFO - 11/06/22 20:22:42 - 0:00:03 - evaluate every 23 epochs
INFO - 11/06/22 20:22:42 - 0:00:03 - At 0-th epoch with lr 0.000000.
…
'g', 'h', 'i', 'j', 'k', 'l', 'm', 'n', 'o', 'p', 'q', 'r', 's', 't', 'u', 'v', 'w', 'x', 'y', 'z']
INFO - 11/06/22 21:47:50 - 0:00:00 - trg vocab ['<PAD>', '<BOS>', '<EOS>', '<UNK>', '%', "'", '-', '.', '0', '1', '2', '3', '4', '5', '6', '7', '8', '9', 'A', 'B', 'C', 'D', 'E', 'G', 'H', 'I', 'J', 'K', 'L', 'M', 'N', 'O', 'P', 'R', 'S', 'T', 'V', 'X', 'Y', 'Z', 'a', 'b', 'c', 'd', 'e', 'f', 'g', 'h', 'i', 'j', 'k', 'l', 'm', 'n', 'o', 'p', 'q', 'r', 's', 't', 'u', 'v', 'w', 'x', 'y', 'z']
INFO - 11/06/22 21:47:50 - 0:00:00 - model: Transformer(
                                       (src_embed): Embedding(68, 500, padding_idx=0)
                                       (trg_embed): Embedding(66, 500, padding_idx=0)
                                       (position_embed): SinusoidalPositionalEmbedding()
                                       (encoder): TransformerEncoder(
                                         (layers): ModuleList(
                                           (0): TransformerEncoderLayer(
                                             (self_attn): MultiheadAttention(
                                               (out_proj): NonDynamicallyQuantizableLinear(in_features=500, out_features=500, bias=True)
                                             )
                                             (linear1): Linear(in_features=500, out_features=1024, bias=True)
                                             (dropout): Dropout(p=0.4, inplace=False)
                                             (linear2): Linear(in_features=1024, out_features=500, bias=True)
                                             (norm1): LayerNorm((500,), eps=1e-05, elementwise_affine=True)
                                             (norm2): LayerNorm((500,), eps=1e-05, elementwise_affine=True)
                                             (activation_dropout): Dropout(p=0.4, inplace=False)
                                           )
                                           (1): TransformerEncoderLayer(
                                             (self_attn): MultiheadAttention(
                                               (out_proj): NonDynamicallyQuantizableLinear(in_features=500, out_features=500, bias=True)
                                             )
                                             (linear1): Linear(in_features=500, out_features=1024, bias=True)
                                             (dropout): Dropout(p=0.4, inplace=False)
                                             (linear2): Linear(in_features=1024, out_features=500, bias=True)
                                             (norm1): LayerNorm((500,), eps=1e-05, elementwise_affine=True)
                                             (norm2): LayerNorm((500,), eps=1e-05, elementwise_affine=True)
                                             (activation_dropout): Dropout(p=0.4, inplace=False)
                                           )
                                           (2): TransformerEncoderLayer(
                                             (self_attn): MultiheadAttention(
                                               (out_proj): NonDynamicallyQuantizableLinear(in_features=500, out_features=500, bias=True)
                                             )
                                             (linear1): Linear(in_features=500, out_features=1024, bias=True)
                                             (dropout): Dropout(p=0.4, inplace=False)
                                             (linear2): Linear(in_features=1024, out_features=500, bias=True)
                                             (norm1): LayerNorm((500,), eps=1e-05, elementwise_affine=True)
                                             (norm2): LayerNorm((500,), eps=1e-05, elementwise_affine=True)
                                             (activation_dropout): Dropout(p=0.4, inplace=False)
                                           )
                                           (3): TransformerEncoderLayer(
                                             (self_attn): MultiheadAttention(
                                               (out_proj): NonDynamicallyQuantizableLinear(in_features=500, out_features=500, bias=True)
                                             )
                                             (linear1): Linear(in_features=500, out_features=1024, bias=True)
                                             (dropout): Dropout(p=0.4, inplace=False)
                                             (linear2): Linear(in_features=1024, out_features=500, bias=True)
                                             (norm1): LayerNorm((500,), eps=1e-05, elementwise_affine=True)
                                             (norm2): LayerNorm((500,), eps=1e-05, elementwise_affine=True)
                                             (activation_dropout): Dropout(p=0.4, inplace=False)
                                           )
                                         )
                                         (norm): LayerNorm((500,), eps=1e-05, elementwise_affine=True)
                                       )
                                       (decoder): TransformerDecoder(
                                         (layers): ModuleList(
                                           (0): TransformerDecoderLayer(
                                             (self_attn): MultiheadAttention(
                                               (out_proj): NonDynamicallyQuantizableLinear(in_features=500, out_features=500, bias=True)
                                             )
                                             (multihead_attn): MultiheadAttention(
                                               (out_proj): NonDynamicallyQuantizableLinear(in_features=500, out_features=500, bias=True)
                                             )
                                             (linear1): Linear(in_features=500, out_features=1024, bias=True)
                                             (dropout): Dropout(p=0.4, inplace=False)
                                             (linear2): Linear(in_features=1024, out_features=500, bias=True)
                                             (norm1): LayerNorm((500,), eps=1e-05, elementwise_affine=True)
                                             (norm2): LayerNorm((500,), eps=1e-05, elementwise_affine=True)
                                             (norm3): LayerNorm((500,), eps=1e-05, elementwise_affine=True)
                                             (activation_dropout): Dropout(p=0.4, inplace=False)
                                           )
                                           (1): TransformerDecoderLayer(
                                             (self_attn): MultiheadAttention(
                                               (out_proj): NonDynamicallyQuantizableLinear(in_features=500, out_features=500, bias=True)
                                             )
                                             (multihead_attn): MultiheadAttention(
                                               (out_proj): NonDynamicallyQuantizableLinear(in_features=500, out_features=500, bias=True)
                                             )
                                             (linear1): Linear(in_features=500, out_features=1024, bias=True)
                                             (dropout): Dropout(p=0.4, inplace=False)
                                             (linear2): Linear(in_features=1024, out_features=500, bias=True)
                                             (norm1): LayerNorm((500,), eps=1e-05, elementwise_affine=True)
                                             (norm2): LayerNorm((500,), eps=1e-05, elementwise_affine=True)
                                             (norm3): LayerNorm((500,), eps=1e-05, elementwise_affine=True)
                                             (activation_dropout): Dropout(p=0.4, inplace=False)
                                           )
                                           (2): TransformerDecoderLayer(
                                             (self_attn): MultiheadAttention(
                                               (out_proj): NonDynamicallyQuantizableLinear(in_features=500, out_features=500, bias=True)
                                             )
                                             (multihead_attn): MultiheadAttention(
                                               (out_proj): NonDynamicallyQuantizableLinear(in_features=500, out_features=500, bias=True)
                                             )
                                             (linear1): Linear(in_features=500, out_features=1024, bias=True)
                                             (dropout): Dropout(p=0.4, inplace=False)
                                             (linear2): Linear(in_features=1024, out_features=500, bias=True)
                                             (norm1): LayerNorm((500,), eps=1e-05, elementwise_affine=True)
                                             (norm2): LayerNorm((500,), eps=1e-05, elementwise_affine=True)
                                             (norm3): LayerNorm((500,), eps=1e-05, elementwise_affine=True)
                                             (activation_dropout): Dropout(p=0.4, inplace=False)
                                           )
                                           (3): TransformerDecoderLayer(
                                             (self_attn): MultiheadAttention(
                                               (out_proj): NonDynamicallyQuantizableLinear(in_features=500, out_features=500, bias=True)
                                             )
                                             (multihead_attn): MultiheadAttention(
                                               (out_proj): NonDynamicallyQuantizableLinear(in_features=500, out_features=500, bias=True)
                                             )
                                             (linear1): Linear(in_features=500, out_features=1024, bias=True)
                                             (dropout): Dropout(p=0.4, inplace=False)
                                             (linear2): Linear(in_features=1024, out_features=500, bias=True)
                                             (norm1): LayerNorm((500,), eps=1e-05, elementwise_affine=True)
                                             (norm2): LayerNorm((500,), eps=1e-05, elementwise_affine=True)
                                             (norm3): LayerNorm((500,), eps=1e-05, elementwise_affine=True)
                                             (activation_dropout): Dropout(p=0.4, inplace=False)
                                           )
                                         )
                                         (norm): LayerNorm((500,), eps=1e-05, elementwise_affine=True)
                                       )
                                       (final_out): Linear(in_features=500, out_features=66, bias=True)
                                       (dropout): Dropout(p=0.4, inplace=False)
                                     )
INFO - 11/06/22 21:47:50 - 0:00:00 - number of parameter 20350258
INFO - 11/06/22 21:47:53 - 0:00:03 - maximum training 20009 steps (1177 epochs)
INFO - 11/06/22 21:47:53 - 0:00:03 - evaluate every 23 epochs
INFO - 11/06/22 21:47:53 - 0:00:03 - At 0-th epoch with lr 0.000000.
…
