…
'k', 'l', 'm', 'n', 'o', 'p', 'q', 'r', 's', 't', 'u', 'v', 'w', 'x', 'y', 'z']
INFO - 11/06/22 18:39:38 - 0:00:00 - trg vocab ['<PAD>', '<BOS>', '<EOS>', '<UNK>', '%', '&', "'", '-', '.', '0', '1', '2', '3', '4', '5', '6', '7', '8', '9', 'A', 'B', 'C', 'D', 'E', 'F', 'G', 'H', 'I', 'J', 'K', 'L', 'M', 'N', 'O', 'P', 'R', 'S', 'T', 'U', 'V', 'W', 'X', 'Y', 'Z', 'a', 'b', 'c', 'd', 'e', 'f', 'g', 'h', 'i', 'j', 'k', 'l', 'm', 'n', 'o', 'p', 'q', 'r', 's', 't', 'u', 'v', 'w', 'x', 'y', 'z']
INFO - 11/06/22 18:39:38 - 0:00:00 - model: Transformer(
                                       (src_embed): Embedding(69, 100, padding_idx=0)
                                       (trg_embed): Embedding(70, 100, padding_idx=0)
                                       (position_embed): SinusoidalPositionalEmbedding()
                                       (encoder): TransformerEncoder(
                                         (layers): ModuleList(
                                           (0): TransformerEncoderLayer(
                                             (self_attn): MultiheadAttention(
                                               (out_proj): NonDynamicallyQuantizableLinear(in_features=100, out_features=100, bias=True)
                                             )
                                             (linear1): Linear(in_features=100, out_features=1024, bias=True)
                                             (dropout): Dropout(p=0.4, inplace=False)
                                             (linear2): Linear(in_features=1024, out_features=100, bias=True)
                                             (norm1): LayerNorm((100,), eps=1e-05, elementwise_affine=True)
                                             (norm2): LayerNorm((100,), eps=1e-05, elementwise_affine=True)
                                             (activation_dropout): Dropout(p=0.4, inplace=False)
                                           )
                                           (1): TransformerEncoderLayer(
                                             (self_attn): MultiheadAttention(
                                               (out_proj): NonDynamicallyQuantizableLinear(in_features=100, out_features=100, bias=True)
                                             )
                                             (linear1): Linear(in_features=100, out_features=1024, bias=True)
                                             (dropout): Dropout(p=0.4, inplace=False)
                                             (linear2): Linear(in_features=1024, out_features=100, bias=True)
                                             (norm1): LayerNorm((100,), eps=1e-05, elementwise_affine=True)
                                             (norm2): LayerNorm((100,), eps=1e-05, elementwise_affine=True)
                                             (activation_dropout): Dropout(p=0.4, inplace=False)
                                           )
                                           (2): TransformerEncoderLayer(
                                             (self_attn): MultiheadAttention(
                                               (out_proj): NonDynamicallyQuantizableLinear(in_features=100, out_features=100, bias=True)
                                             )
                                             (linear1): Linear(in_features=100, out_features=1024, bias=True)
                                             (dropout): Dropout(p=0.4, inplace=False)
                                             (linear2): Linear(in_features=1024, out_features=100, bias=True)
                                             (norm1): LayerNorm((100,), eps=1e-05, elementwise_affine=True)
                                             (norm2): LayerNorm((100,), eps=1e-05, elementwise_affine=True)
                                             (activation_dropout): Dropout(p=0.4, inplace=False)
                                           )
                                           (3): TransformerEncoderLayer(
                                             (self_attn): MultiheadAttention(
                                               (out_proj): NonDynamicallyQuantizableLinear(in_features=100, out_features=100, bias=True)
                                             )
                                             (linear1): Linear(in_features=100, out_features=1024, bias=True)
                                             (dropout): Dropout(p=0.4, inplace=False)
                                             (linear2): Linear(in_features=1024, out_features=100, bias=True)
                                             (norm1): LayerNorm((100,), eps=1e-05, elementwise_affine=True)
                                             (norm2): LayerNorm((100,), eps=1e-05, elementwise_affine=True)
                                             (activation_dropout): Dropout(p=0.4, inplace=False)
                                           )
                                         )
                                         (norm): LayerNorm((100,), eps=1e-05, elementwise_affine=True)
                                       )
                                       (decoder): TransformerDecoder(
                                         (layers): ModuleList(
                                           (0): TransformerDecoderLayer(
                                             (self_attn): MultiheadAttention(
                                               (out_proj): NonDynamicallyQuantizableLinear(in_features=100, out_features=100, bias=True)
                                             )
                                             (multihead_attn): MultiheadAttention(
                                               (out_proj): NonDynamicallyQuantizableLinear(in_features=100, out_features=100, bias=True)
                                             )
                                             (linear1): Linear(in_features=100, out_features=1024, bias=True)
                                             (dropout): Dropout(p=0.4, inplace=False)
                                             (linear2): Linear(in_features=1024, out_features=100, bias=True)
                                             (norm1): LayerNorm((100,), eps=1e-05, elementwise_affine=True)
                                             (norm2): LayerNorm((100,), eps=1e-05, elementwise_affine=True)
                                             (norm3): LayerNorm((100,), eps=1e-05, elementwise_affine=True)
                                             (activation_dropout): Dropout(p=0.4, inplace=False)
                                           )
                                           (1): TransformerDecoderLayer(
                                             (self_attn): MultiheadAttention(
                                               (out_proj): NonDynamicallyQuantizableLinear(in_features=100, out_features=100, bias=True)
                                             )
                                             (multihead_attn): MultiheadAttention(
                                               (out_proj): NonDynamicallyQuantizableLinear(in_features=100, out_features=100, bias=True)
                                             )
                                             (linear1): Linear(in_features=100, out_features=1024, bias=True)
                                             (dropout): Dropout(p=0.4, inplace=False)
                                             (linear2): Linear(in_features=1024, out_features=100, bias=True)
                                             (norm1): LayerNorm((100,), eps=1e-05, elementwise_affine=True)
                                             (norm2): LayerNorm((100,), eps=1e-05, elementwise_affine=True)
                                             (norm3): LayerNorm((100,), eps=1e-05, elementwise_affine=True)
                                             (activation_dropout): Dropout(p=0.4, inplace=False)
                                           )
                                           (2): TransformerDecoderLayer(
                                             (self_attn): MultiheadAttention(
                                               (out_proj): NonDynamicallyQuantizableLinear(in_features=100, out_features=100, bias=True)
                                             )
                                             (multihead_attn): MultiheadAttention(
                                               (out_proj): NonDynamicallyQuantizableLinear(in_features=100, out_features=100, bias=True)
                                             )
                                             (linear1): Linear(in_features=100, out_features=1024, bias=True)
                                             (dropout): Dropout(p=0.4, inplace=False)
                                             (linear2): Linear(in_features=1024, out_features=100, bias=True)
                                             (norm1): LayerNorm((100,), eps=1e-05, elementwise_affine=True)
                                             (norm2): LayerNorm((100,), eps=1e-05, elementwise_affine=True)
                                             (norm3): LayerNorm((100,), eps=1e-05, elementwise_affine=True)
                                             (activation_dropout): Dropout(p=0.4, inplace=False)
                                           )
                                           (3): TransformerDecoderLayer(
                                             (self_attn): MultiheadAttention(
                                               (out_proj): NonDynamicallyQuantizableLinear(in_features=100, out_features=100, bias=True)
                                             )
                                             (multihead_attn): MultiheadAttention(
                                               (out_proj): NonDynamicallyQuantizableLinear(in_features=100, out_features=100, bias=True)
                                             )
                                             (linear1): Linear(in_features=100, out_features=1024, bias=True)
                                             (dropout): Dropout(p=0.4, inplace=False)
                                             (linear2): Linear(in_features=1024, out_features=100, bias=True)
                                             (norm1): LayerNorm((100,), eps=1e-05, elementwise_affine=True)
                                             (norm2): LayerNorm((100,), eps=1e-05, elementwise_affine=True)
                                             (norm3): LayerNorm((100,), eps=1e-05, elementwise_affine=True)
                                             (activation_dropout): Dropout(p=0.4, inplace=False)
                                           )
                                         )
                                         (norm): LayerNorm((100,), eps=1e-05, elementwise_affine=True)
                                       )
                                       (final_out): Linear(in_features=100, out_features=70, bias=True)
                                       (dropout): Dropout(p=0.4, inplace=False)
                                     )
INFO - 11/06/22 18:39:38 - 0:00:00 - number of parameter 2157562
INFO - 11/06/22 18:39:40 - 0:00:02 - maximum training 20007 steps (2223 epochs)
INFO - 11/06/22 18:39:40 - 0:00:02 - evaluate every 44 epochs
INFO - 11/06/22 18:39:40 - 0:00:02 - At 0-th epoch with lr 0.000000.
…
'k', 'l', 'm', 'n', 'o', 'p', 'q', 'r', 's', 't', 'u', 'v', 'w', 'x', 'y', 'z']
INFO - 11/06/22 19:07:47 - 0:00:00 - trg vocab ['<PAD>', '<BOS>', '<EOS>', '<UNK>', '%', '&', "'", '-', '.', '0', '1', '2', '3', '4', '5', '6', '7', '8', '9', 'A', 'B', 'C', 'D', 'E', 'F', 'G', 'H', 'I', 'J', 'K', 'L', 'M', 'N', 'O', 'P', 'R', 'S', 'T', 'U', 'V', 'W', 'X', 'Y', 'Z', 'a', 'b', 'c', 'd', 'e', 'f', 'g', 'h', 'i', 'j', 'k', 'l', 'm', 'n', 'o', 'p', 'q', 'r', 's', 't', 'u', 'v', 'w', 'x', 'y', 'z']
INFO - 11/06/22 19:07:47 - 0:00:00 - model: Transformer(
                                       (src_embed): Embedding(69, 200, padding_idx=0)
                                       (trg_embed): Embedding(70, 200, padding_idx=0)
                                       (position_embed): SinusoidalPositionalEmbedding()
                                       (encoder): TransformerEncoder(
                                         (layers): ModuleList(
                                           (0): TransformerEncoderLayer(
                                             (self_attn): MultiheadAttention(
                                               (out_proj): NonDynamicallyQuantizableLinear(in_features=200, out_features=200, bias=True)
                                             )
                                             (linear1): Linear(in_features=200, out_features=1024, bias=True)
                                             (dropout): Dropout(p=0.4, inplace=False)
                                             (linear2): Linear(in_features=1024, out_features=200, bias=True)
                                             (norm1): LayerNorm((200,), eps=1e-05, elementwise_affine=True)
                                             (norm2): LayerNorm((200,), eps=1e-05, elementwise_affine=True)
                                             (activation_dropout): Dropout(p=0.4, inplace=False)
                                           )
                                           (1): TransformerEncoderLayer(
                                             (self_attn): MultiheadAttention(
                                               (out_proj): NonDynamicallyQuantizableLinear(in_features=200, out_features=200, bias=True)
                                             )
                                             (linear1): Linear(in_features=200, out_features=1024, bias=True)
                                             (dropout): Dropout(p=0.4, inplace=False)
                                             (linear2): Linear(in_features=1024, out_features=200, bias=True)
                                             (norm1): LayerNorm((200,), eps=1e-05, elementwise_affine=True)
                                             (norm2): LayerNorm((200,), eps=1e-05, elementwise_affine=True)
                                             (activation_dropout): Dropout(p=0.4, inplace=False)
                                           )
                                           (2): TransformerEncoderLayer(
                                             (self_attn): MultiheadAttention(
                                               (out_proj): NonDynamicallyQuantizableLinear(in_features=200, out_features=200, bias=True)
                                             )
                                             (linear1): Linear(in_features=200, out_features=1024, bias=True)
                                             (dropout): Dropout(p=0.4, inplace=False)
                                             (linear2): Linear(in_features=1024, out_features=200, bias=True)
                                             (norm1): LayerNorm((200,), eps=1e-05, elementwise_affine=True)
                                             (norm2): LayerNorm((200,), eps=1e-05, elementwise_affine=True)
                                             (activation_dropout): Dropout(p=0.4, inplace=False)
                                           )
                                           (3): TransformerEncoderLayer(
                                             (self_attn): MultiheadAttention(
                                               (out_proj): NonDynamicallyQuantizableLinear(in_features=200, out_features=200, bias=True)
                                             )
                                             (linear1): Linear(in_features=200, out_features=1024, bias=True)
                                             (dropout): Dropout(p=0.4, inplace=False)
                                             (linear2): Linear(in_features=1024, out_features=200, bias=True)
                                             (norm1): LayerNorm((200,), eps=1e-05, elementwise_affine=True)
                                             (norm2): LayerNorm((200,), eps=1e-05, elementwise_affine=True)
                                             (activation_dropout): Dropout(p=0.4, inplace=False)
                                           )
                                         )
                                         (norm): LayerNorm((200,), eps=1e-05, elementwise_affine=True)
                                       )
                                       (decoder): TransformerDecoder(
                                         (layers): ModuleList(
                                           (0): TransformerDecoderLayer(
                                             (self_attn): MultiheadAttention(
                                               (out_proj): NonDynamicallyQuantizableLinear(in_features=200, out_features=200, bias=True)
                                             )
                                             (multihead_attn): MultiheadAttention(
                                               (out_proj): NonDynamicallyQuantizableLinear(in_features=200, out_features=200, bias=True)
                                             )
                                             (linear1): Linear(in_features=200, out_features=1024, bias=True)
                                             (dropout): Dropout(p=0.4, inplace=False)
                                             (linear2): Linear(in_features=1024, out_features=200, bias=True)
                                             (norm1): LayerNorm((200,), eps=1e-05, elementwise_affine=True)
                                             (norm2): LayerNorm((200,), eps=1e-05, elementwise_affine=True)
                                             (norm3): LayerNorm((200,), eps=1e-05, elementwise_affine=True)
                                             (activation_dropout): Dropout(p=0.4, inplace=False)
                                           )
                                           (1): TransformerDecoderLayer(
                                             (self_attn): MultiheadAttention(
                                               (out_proj): NonDynamicallyQuantizableLinear(in_features=200, out_features=200, bias=True)
                                             )
                                             (multihead_attn): MultiheadAttention(
                                               (out_proj): NonDynamicallyQuantizableLinear(in_features=200, out_features=200, bias=True)
                                             )
                                             (linear1): Linear(in_features=200, out_features=1024, bias=True)
                                             (dropout): Dropout(p=0.4, inplace=False)
                                             (linear2): Linear(in_features=1024, out_features=200, bias=True)
                                             (norm1): LayerNorm((200,), eps=1e-05, elementwise_affine=True)
                                             (norm2): LayerNorm((200,), eps=1e-05, elementwise_affine=True)
                                             (norm3): LayerNorm((200,), eps=1e-05, elementwise_affine=True)
                                             (activation_dropout): Dropout(p=0.4, inplace=False)
                                           )
                                           (2): TransformerDecoderLayer(
                                             (self_attn): MultiheadAttention(
                                               (out_proj): NonDynamicallyQuantizableLinear(in_features=200, out_features=200, bias=True)
                                             )
                                             (multihead_attn): MultiheadAttention(
                                               (out_proj): NonDynamicallyQuantizableLinear(in_features=200, out_features=200, bias=True)
                                             )
                                             (linear1): Linear(in_features=200, out_features=1024, bias=True)
                                             (dropout): Dropout(p=0.4, inplace=False)
                                             (linear2): Linear(in_features=1024, out_features=200, bias=True)
                                             (norm1): LayerNorm((200,), eps=1e-05, elementwise_affine=True)
                                             (norm2): LayerNorm((200,), eps=1e-05, elementwise_affine=True)
                                             (norm3): LayerNorm((200,), eps=1e-05, elementwise_affine=True)
                                             (activation_dropout): Dropout(p=0.4, inplace=False)
                                           )
                                           (3): TransformerDecoderLayer(
                                             (self_attn): MultiheadAttention(
                                               (out_proj): NonDynamicallyQuantizableLinear(in_features=200, out_features=200, bias=True)
                                             )
                                             (multihead_attn): MultiheadAttention(
                                               (out_proj): NonDynamicallyQuantizableLinear(in_features=200, out_features=200, bias=True)
                                             )
                                             (linear1): Linear(in_features=200, out_features=1024, bias=True)
                                             (dropout): Dropout(p=0.4, inplace=False)
                                             (linear2): Linear(in_features=1024, out_features=200, bias=True)
                                             (norm1): LayerNorm((200,), eps=1e-05, elementwise_affine=True)
                                             (norm2): LayerNorm((200,), eps=1e-05, elementwise_affine=True)
                                             (norm3): LayerNorm((200,), eps=1e-05, elementwise_affine=True)
                                             (activation_dropout): Dropout(p=0.4, inplace=False)
                                           )
                                         )
                                         (norm): LayerNorm((200,), eps=1e-05, elementwise_affine=True)
                                       )
                                       (final_out): Linear(in_features=200, out_features=70, bias=True)
                                       (dropout): Dropout(p=0.4, inplace=False)
                                     )
INFO - 11/06/22 19:07:47 - 0:00:00 - number of parameter 5266862
INFO - 11/06/22 19:07:49 - 0:00:02 - maximum training 20007 steps (2223 epochs)
INFO - 11/06/22 19:07:49 - 0:00:02 - evaluate every 44 epochs
INFO - 11/06/22 19:07:49 - 0:00:02 - At 0-th epoch with lr 0.000000.
…
'k', 'l', 'm', 'n', 'o', 'p', 'q', 'r', 's', 't', 'u', 'v', 'w', 'x', 'y', 'z']
INFO - 11/06/22 20:04:57 - 0:00:00 - trg vocab ['<PAD>', '<BOS>', '<EOS>', '<UNK>', '%', '&', "'", '-', '.', '0', '1', '2', '3', '4', '5', '6', '7', '8', '9', 'A', 'B', 'C', 'D', 'E', 'F', 'G', 'H', 'I', 'J', 'K', 'L', 'M', 'N', 'O', 'P', 'R', 'S', 'T', 'U', 'V', 'W', 'X', 'Y', 'Z', 'a', 'b', 'c', 'd', 'e', 'f', 'g', 'h', 'i', 'j', 'k', 'l', 'm', 'n', 'o', 'p', 'q', 'r', 's', 't', 'u', 'v', 'w', 'x', 'y', 'z']
INFO - 11/06/22 20:04:57 - 0:00:01 - model: Transformer(
                                       (src_embed): Embedding(69, 300, padding_idx=0)
                                       (trg_embed): Embedding(70, 300, padding_idx=0)
                                       (position_embed): SinusoidalPositionalEmbedding()
                                       (encoder): TransformerEncoder(
                                         (layers): ModuleList(
                                           (0): TransformerEncoderLayer(
                                             (self_attn): MultiheadAttention(
                                               (out_proj): NonDynamicallyQuantizableLinear(in_features=300, out_features=300, bias=True)
                                             )
                                             (linear1): Linear(in_features=300, out_features=1024, bias=True)
                                             (dropout): Dropout(p=0.4, inplace=False)
                                             (linear2): Linear(in_features=1024, out_features=300, bias=True)
                                             (norm1): LayerNorm((300,), eps=1e-05, elementwise_affine=True)
                                             (norm2): LayerNorm((300,), eps=1e-05, elementwise_affine=True)
                                             (activation_dropout): Dropout(p=0.4, inplace=False)
                                           )
                                           (1): TransformerEncoderLayer(
                                             (self_attn): MultiheadAttention(
                                               (out_proj): NonDynamicallyQuantizableLinear(in_features=300, out_features=300, bias=True)
                                             )
                                             (linear1): Linear(in_features=300, out_features=1024, bias=True)
                                             (dropout): Dropout(p=0.4, inplace=False)
                                             (linear2): Linear(in_features=1024, out_features=300, bias=True)
                                             (norm1): LayerNorm((300,), eps=1e-05, elementwise_affine=True)
                                             (norm2): LayerNorm((300,), eps=1e-05, elementwise_affine=True)
                                             (activation_dropout): Dropout(p=0.4, inplace=False)
                                           )
                                           (2): TransformerEncoderLayer(
                                             (self_attn): MultiheadAttention(
                                               (out_proj): NonDynamicallyQuantizableLinear(in_features=300, out_features=300, bias=True)
                                             )
                                             (linear1): Linear(in_features=300, out_features=1024, bias=True)
                                             (dropout): Dropout(p=0.4, inplace=False)
                                             (linear2): Linear(in_features=1024, out_features=300, bias=True)
                                             (norm1): LayerNorm((300,), eps=1e-05, elementwise_affine=True)
                                             (norm2): LayerNorm((300,), eps=1e-05, elementwise_affine=True)
                                             (activation_dropout): Dropout(p=0.4, inplace=False)
                                           )
                                           (3): TransformerEncoderLayer(
                                             (self_attn): MultiheadAttention(
                                               (out_proj): NonDynamicallyQuantizableLinear(in_features=300, out_features=300, bias=True)
                                             )
                                             (linear1): Linear(in_features=300, out_features=1024, bias=True)
                                             (dropout): Dropout(p=0.4, inplace=False)
                                             (linear2): Linear(in_features=1024, out_features=300, bias=True)
                                             (norm1): LayerNorm((300,), eps=1e-05, elementwise_affine=True)
                                             (norm2): LayerNorm((300,), eps=1e-05, elementwise_affine=True)
                                             (activation_dropout): Dropout(p=0.4, inplace=False)
                                           )
                                         )
                                         (norm): LayerNorm((300,), eps=1e-05, elementwise_affine=True)
                                       )
                                       (decoder): TransformerDecoder(
                                         (layers): ModuleList(
                                           (0): TransformerDecoderLayer(
                                             (self_attn): MultiheadAttention(
                                               (out_proj): NonDynamicallyQuantizableLinear(in_features=300, out_features=300, bias=True)
                                             )
                                             (multihead_attn): MultiheadAttention(
                                               (out_proj): NonDynamicallyQuantizableLinear(in_features=300, out_features=300, bias=True)
                                             )
                                             (linear1): Linear(in_features=300, out_features=1024, bias=True)
                                             (dropout): Dropout(p=0.4, inplace=False)
                                             (linear2): Linear(in_features=1024, out_features=300, bias=True)
                                             (norm1): LayerNorm((300,), eps=1e-05, elementwise_affine=True)
                                             (norm2): LayerNorm((300,), eps=1e-05, elementwise_affine=True)
                                             (norm3): LayerNorm((300,), eps=1e-05, elementwise_affine=True)
                                             (activation_dropout): Dropout(p=0.4, inplace=False)
                                           )
                                           (1): TransformerDecoderLayer(
                                             (self_attn): MultiheadAttention(
                                               (out_proj): NonDynamicallyQuantizableLinear(in_features=300, out_features=300, bias=True)
                                             )
                                             (multihead_attn): MultiheadAttention(
                                               (out_proj): NonDynamicallyQuantizableLinear(in_features=300, out_features=300, bias=True)
                                             )
                                             (linear1): Linear(in_features=300, out_features=1024, bias=True)
                                             (dropout): Dropout(p=0.4, inplace=False)
                                             (linear2): Linear(in_features=1024, out_features=300, bias=True)
                                             (norm1): LayerNorm((300,), eps=1e-05, elementwise_affine=True)
                                             (norm2): LayerNorm((300,), eps=1e-05, elementwise_affine=True)
                                             (norm3): LayerNorm((300,), eps=1e-05, elementwise_affine=True)
                                             (activation_dropout): Dropout(p=0.4, inplace=False)
                                           )
                                           (2): TransformerDecoderLayer(
                                             (self_attn): MultiheadAttention(
                                               (out_proj): NonDynamicallyQuantizableLinear(in_features=300, out_features=300, bias=True)
                                             )
                                             (multihead_attn): MultiheadAttention(
                                               (out_proj): NonDynamicallyQuantizableLinear(in_features=300, out_features=300, bias=True)
                                             )
                                             (linear1): Linear(in_features=300, out_features=1024, bias=True)
                                             (dropout): Dropout(p=0.4, inplace=False)
                                             (linear2): Linear(in_features=1024, out_features=300, bias=True)
                                             (norm1): LayerNorm((300,), eps=1e-05, elementwise_affine=True)
                                             (norm2): LayerNorm((300,), eps=1e-05, elementwise_affine=True)
                                             (norm3): LayerNorm((300,), eps=1e-05, elementwise_affine=True)
                                             (activation_dropout): Dropout(p=0.4, inplace=False)
                                           )
                                           (3): TransformerDecoderLayer(
                                             (self_attn): MultiheadAttention(
                                               (out_proj): NonDynamicallyQuantizableLinear(in_features=300, out_features=300, bias=True)
                                             )
                                             (multihead_attn): MultiheadAttention(
                                               (out_proj): NonDynamicallyQuantizableLinear(in_features=300, out_features=300, bias=True)
                                             )
                                             (linear1): Linear(in_features=300, out_features=1024, bias=True)
                                             (dropout): Dropout(p=0.4, inplace=False)
                                             (linear2): Linear(in_features=1024, out_features=300, bias=True)
                                             (norm1): LayerNorm((300,), eps=1e-05, elementwise_affine=True)
                                             (norm2): LayerNorm((300,), eps=1e-05, elementwise_affine=True)
                                             (norm3): LayerNorm((300,), eps=1e-05, elementwise_affine=True)
                                             (activation_dropout): Dropout(p=0.4, inplace=False)
                                           )
                                         )
                                         (norm): LayerNorm((300,), eps=1e-05, elementwise_affine=True)
                                       )
                                       (final_out): Linear(in_features=300, out_features=70, bias=True)
                                       (dropout): Dropout(p=0.4, inplace=False)
                                     )
INFO - 11/06/22 20:04:57 - 0:00:01 - number of parameter 9336162
INFO - 11/06/22 20:04:59 - 0:00:03 - maximum training 20007 steps (2223 epochs)
INFO - 11/06/22 20:04:59 - 0:00:03 - evaluate every 44 epochs
INFO - 11/06/22 20:04:59 - 0:00:03 - At 0-th epoch with lr 0.000000.
…
'k', 'l', 'm', 'n', 'o', 'p', 'q', 'r', 's', 't', 'u', 'v', 'w', 'x', 'y', 'z']
INFO - 11/06/22 21:06:58 - 0:00:00 - trg vocab ['<PAD>', '<BOS>', '<EOS>', '<UNK>', '%', '&', "'", '-', '.', '0', '1', '2', '3', '4', '5', '6', '7', '8', '9', 'A', 'B', 'C', 'D', 'E', 'F', 'G', 'H', 'I', 'J', 'K', 'L', 'M', 'N', 'O', 'P', 'R', 'S', 'T', 'U', 'V', 'W', 'X', 'Y', 'Z', 'a', 'b', 'c', 'd', 'e', 'f', 'g', 'h', 'i', 'j', 'k', 'l', 'm', 'n', 'o', 'p', 'q', 'r', 's', 't', 'u', 'v', 'w', 'x', 'y', 'z']
INFO - 11/06/22 21:06:58 - 0:00:00 - model: Transformer(
                                       (src_embed): Embedding(69, 400, padding_idx=0)
                                       (trg_embed): Embedding(70, 400, padding_idx=0)
                                       (position_embed): SinusoidalPositionalEmbedding()
                                       (encoder): TransformerEncoder(
                                         (layers): ModuleList(
                                           (0): TransformerEncoderLayer(
                                             (self_attn): MultiheadAttention(
                                               (out_proj): NonDynamicallyQuantizableLinear(in_features=400, out_features=400, bias=True)
                                             )
                                             (linear1): Linear(in_features=400, out_features=1024, bias=True)
                                             (dropout): Dropout(p=0.4, inplace=False)
                                             (linear2): Linear(in_features=1024, out_features=400, bias=True)
                                             (norm1): LayerNorm((400,), eps=1e-05, elementwise_affine=True)
                                             (norm2): LayerNorm((400,), eps=1e-05, elementwise_affine=True)
                                             (activation_dropout): Dropout(p=0.4, inplace=False)
                                           )
                                           (1): TransformerEncoderLayer(
                                             (self_attn): MultiheadAttention(
                                               (out_proj): NonDynamicallyQuantizableLinear(in_features=400, out_features=400, bias=True)
                                             )
                                             (linear1): Linear(in_features=400, out_features=1024, bias=True)
                                             (dropout): Dropout(p=0.4, inplace=False)
                                             (linear2): Linear(in_features=1024, out_features=400, bias=True)
                                             (norm1): LayerNorm((400,), eps=1e-05, elementwise_affine=True)
                                             (norm2): LayerNorm((400,), eps=1e-05, elementwise_affine=True)
                                             (activation_dropout): Dropout(p=0.4, inplace=False)
                                           )
                                           (2): TransformerEncoderLayer(
                                             (self_attn): MultiheadAttention(
                                               (out_proj): NonDynamicallyQuantizableLinear(in_features=400, out_features=400, bias=True)
                                             )
                                             (linear1): Linear(in_features=400, out_features=1024, bias=True)
                                             (dropout): Dropout(p=0.4, inplace=False)
                                             (linear2): Linear(in_features=1024, out_features=400, bias=True)
                                             (norm1): LayerNorm((400,), eps=1e-05, elementwise_affine=True)
                                             (norm2): LayerNorm((400,), eps=1e-05, elementwise_affine=True)
                                             (activation_dropout): Dropout(p=0.4, inplace=False)
                                           )
                                           (3): TransformerEncoderLayer(
                                             (self_attn): MultiheadAttention(
                                               (out_proj): NonDynamicallyQuantizableLinear(in_features=400, out_features=400, bias=True)
                                             )
                                             (linear1): Linear(in_features=400, out_features=1024, bias=True)
                                             (dropout): Dropout(p=0.4, inplace=False)
                                             (linear2): Linear(in_features=1024, out_features=400, bias=True)
                                             (norm1): LayerNorm((400,), eps=1e-05, elementwise_affine=True)
                                             (norm2): LayerNorm((400,), eps=1e-05, elementwise_affine=True)
                                             (activation_dropout): Dropout(p=0.4, inplace=False)
                                           )
                                         )
                                         (norm): LayerNorm((400,), eps=1e-05, elementwise_affine=True)
                                       )
                                       (decoder): TransformerDecoder(
                                         (layers): ModuleList(
                                           (0): TransformerDecoderLayer(
                                             (self_attn): MultiheadAttention(
                                               (out_proj): NonDynamicallyQuantizableLinear(in_features=400, out_features=400, bias=True)
                                             )
                                             (multihead_attn): MultiheadAttention(
                                               (out_proj): NonDynamicallyQuantizableLinear(in_features=400, out_features=400, bias=True)
                                             )
                                             (linear1): Linear(in_features=400, out_features=1024, bias=True)
                                             (dropout): Dropout(p=0.4, inplace=False)
                                             (linear2): Linear(in_features=1024, out_features=400, bias=True)
                                             (norm1): LayerNorm((400,), eps=1e-05, elementwise_affine=True)
                                             (norm2): LayerNorm((400,), eps=1e-05, elementwise_affine=True)
                                             (norm3): LayerNorm((400,), eps=1e-05, elementwise_affine=True)
                                             (activation_dropout): Dropout(p=0.4, inplace=False)
                                           )
                                           (1): TransformerDecoderLayer(
                                             (self_attn): MultiheadAttention(
                                               (out_proj): NonDynamicallyQuantizableLinear(in_features=400, out_features=400, bias=True)
                                             )
                                             (multihead_attn): MultiheadAttention(
                                               (out_proj): NonDynamicallyQuantizableLinear(in_features=400, out_features=400, bias=True)
                                             )
                                             (linear1): Linear(in_features=400, out_features=1024, bias=True)
                                             (dropout): Dropout(p=0.4, inplace=False)
                                             (linear2): Linear(in_features=1024, out_features=400, bias=True)
                                             (norm1): LayerNorm((400,), eps=1e-05, elementwise_affine=True)
                                             (norm2): LayerNorm((400,), eps=1e-05, elementwise_affine=True)
                                             (norm3): LayerNorm((400,), eps=1e-05, elementwise_affine=True)
                                             (activation_dropout): Dropout(p=0.4, inplace=False)
                                           )
                                           (2): TransformerDecoderLayer(
                                             (self_attn): MultiheadAttention(
                                               (out_proj): NonDynamicallyQuantizableLinear(in_features=400, out_features=400, bias=True)
                                             )
                                             (multihead_attn): MultiheadAttention(
                                               (out_proj): NonDynamicallyQuantizableLinear(in_features=400, out_features=400, bias=True)
                                             )
                                             (linear1): Linear(in_features=400, out_features=1024, bias=True)
                                             (dropout): Dropout(p=0.4, inplace=False)
                                             (linear2): Linear(in_features=1024, out_features=400, bias=True)
                                             (norm1): LayerNorm((400,), eps=1e-05, elementwise_affine=True)
                                             (norm2): LayerNorm((400,), eps=1e-05, elementwise_affine=True)
                                             (norm3): LayerNorm((400,), eps=1e-05, elementwise_affine=True)
                                             (activation_dropout): Dropout(p=0.4, inplace=False)
                                           )
                                           (3): TransformerDecoderLayer(
                                             (self_attn): MultiheadAttention(
                                               (out_proj): NonDynamicallyQuantizableLinear(in_features=400, out_features=400, bias=True)
                                             )
                                             (multihead_attn): MultiheadAttention(
                                               (out_proj): NonDynamicallyQuantizableLinear(in_features=400, out_features=400, bias=True)
                                             )
                                             (linear1): Linear(in_features=400, out_features=1024, bias=True)
                                             (dropout): Dropout(p=0.4, inplace=False)
                                             (linear2): Linear(in_features=1024, out_features=400, bias=True)
                                             (norm1): LayerNorm((400,), eps=1e-05, elementwise_affine=True)
                                             (norm2): LayerNorm((400,), eps=1e-05, elementwise_affine=True)
                                             (norm3): LayerNorm((400,), eps=1e-05, elementwise_affine=True)
                                             (activation_dropout): Dropout(p=0.4, inplace=False)
                                           )
                                         )
                                         (norm): LayerNorm((400,), eps=1e-05, elementwise_affine=True)
                                       )
                                       (final_out): Linear(in_features=400, out_features=70, bias=True)
                                       (dropout): Dropout(p=0.4, inplace=False)
                                     )
INFO - 11/06/22 21:06:58 - 0:00:00 - number of parameter 14365462
INFO - 11/06/22 21:07:00 - 0:00:02 - maximum training 20007 steps (2223 epochs)
INFO - 11/06/22 21:07:00 - 0:00:02 - evaluate every 44 epochs
INFO - 11/06/22 21:07:00 - 0:00:02 - At 0-th epoch with lr 0.000000.
…
'k', 'l', 'm', 'n', 'o', 'p', 'q', 'r', 's', 't', 'u', 'v', 'w', 'x', 'y', 'z']
INFO - 11/06/22 22:40:13 - 0:00:00 - trg vocab ['<PAD>', '<BOS>', '<EOS>', '<UNK>', '%', '&', "'", '-', '.', '0', '1', '2', '3', '4', '5', '6', '7', '8', '9', 'A', 'B', 'C', 'D', 'E', 'F', 'G', 'H', 'I', 'J', 'K', 'L', 'M', 'N', 'O', 'P', 'R', 'S', 'T', 'U', 'V', 'W', 'X', 'Y', 'Z', 'a', 'b', 'c', 'd', 'e', 'f', 'g', 'h', 'i', 'j', 'k', 'l', 'm', 'n', 'o', 'p', 'q', 'r', 's', 't', 'u', 'v', 'w', 'x', 'y', 'z']
INFO - 11/06/22 22:40:14 - 0:00:00 - model: Transformer(
                                       (src_embed): Embedding(69, 500, padding_idx=0)
                                       (trg_embed): Embedding(70, 500, padding_idx=0)
                                       (position_embed): SinusoidalPositionalEmbedding()
                                       (encoder): TransformerEncoder(
                                         (layers): ModuleList(
                                           (0): TransformerEncoderLayer(
                                             (self_attn): MultiheadAttention(
                                               (out_proj): NonDynamicallyQuantizableLinear(in_features=500, out_features=500, bias=True)
                                             )
                                             (linear1): Linear(in_features=500, out_features=1024, bias=True)
                                             (dropout): Dropout(p=0.4, inplace=False)
                                             (linear2): Linear(in_features=1024, out_features=500, bias=True)
                                             (norm1): LayerNorm((500,), eps=1e-05, elementwise_affine=True)
                                             (norm2): LayerNorm((500,), eps=1e-05, elementwise_affine=True)
                                             (activation_dropout): Dropout(p=0.4, inplace=False)
                                           )
                                           (1): TransformerEncoderLayer(
                                             (self_attn): MultiheadAttention(
                                               (out_proj): NonDynamicallyQuantizableLinear(in_features=500, out_features=500, bias=True)
                                             )
                                             (linear1): Linear(in_features=500, out_features=1024, bias=True)
                                             (dropout): Dropout(p=0.4, inplace=False)
                                             (linear2): Linear(in_features=1024, out_features=500, bias=True)
                                             (norm1): LayerNorm((500,), eps=1e-05, elementwise_affine=True)
                                             (norm2): LayerNorm((500,), eps=1e-05, elementwise_affine=True)
                                             (activation_dropout): Dropout(p=0.4, inplace=False)
                                           )
                                           (2): TransformerEncoderLayer(
                                             (self_attn): MultiheadAttention(
                                               (out_proj): NonDynamicallyQuantizableLinear(in_features=500, out_features=500, bias=True)
                                             )
                                             (linear1): Linear(in_features=500, out_features=1024, bias=True)
                                             (dropout): Dropout(p=0.4, inplace=False)
                                             (linear2): Linear(in_features=1024, out_features=500, bias=True)
                                             (norm1): LayerNorm((500,), eps=1e-05, elementwise_affine=True)
                                             (norm2): LayerNorm((500,), eps=1e-05, elementwise_affine=True)
                                             (activation_dropout): Dropout(p=0.4, inplace=False)
                                           )
                                           (3): TransformerEncoderLayer(
                                             (self_attn): MultiheadAttention(
                                               (out_proj): NonDynamicallyQuantizableLinear(in_features=500, out_features=500, bias=True)
                                             )
                                             (linear1): Linear(in_features=500, out_features=1024, bias=True)
                                             (dropout): Dropout(p=0.4, inplace=False)
                                             (linear2): Linear(in_features=1024, out_features=500, bias=True)
                                             (norm1): LayerNorm((500,), eps=1e-05, elementwise_affine=True)
                                             (norm2): LayerNorm((500,), eps=1e-05, elementwise_affine=True)
                                             (activation_dropout): Dropout(p=0.4, inplace=False)
                                           )
                                         )
                                         (norm): LayerNorm((500,), eps=1e-05, elementwise_affine=True)
                                       )
                                       (decoder): TransformerDecoder(
                                         (layers): ModuleList(
                                           (0): TransformerDecoderLayer(
                                             (self_attn): MultiheadAttention(
                                               (out_proj): NonDynamicallyQuantizableLinear(in_features=500, out_features=500, bias=True)
                                             )
                                             (multihead_attn): MultiheadAttention(
                                               (out_proj): NonDynamicallyQuantizableLinear(in_features=500, out_features=500, bias=True)
                                             )
                                             (linear1): Linear(in_features=500, out_features=1024, bias=True)
                                             (dropout): Dropout(p=0.4, inplace=False)
                                             (linear2): Linear(in_features=1024, out_features=500, bias=True)
                                             (norm1): LayerNorm((500,), eps=1e-05, elementwise_affine=True)
                                             (norm2): LayerNorm((500,), eps=1e-05, elementwise_affine=True)
                                             (norm3): LayerNorm((500,), eps=1e-05, elementwise_affine=True)
                                             (activation_dropout): Dropout(p=0.4, inplace=False)
                                           )
                                           (1): TransformerDecoderLayer(
                                             (self_attn): MultiheadAttention(
                                               (out_proj): NonDynamicallyQuantizableLinear(in_features=500, out_features=500, bias=True)
                                             )
                                             (multihead_attn): MultiheadAttention(
                                               (out_proj): NonDynamicallyQuantizableLinear(in_features=500, out_features=500, bias=True)
                                             )
                                             (linear1): Linear(in_features=500, out_features=1024, bias=True)
                                             (dropout): Dropout(p=0.4, inplace=False)
                                             (linear2): Linear(in_features=1024, out_features=500, bias=True)
                                             (norm1): LayerNorm((500,), eps=1e-05, elementwise_affine=True)
                                             (norm2): LayerNorm((500,), eps=1e-05, elementwise_affine=True)
                                             (norm3): LayerNorm((500,), eps=1e-05, elementwise_affine=True)
                                             (activation_dropout): Dropout(p=0.4, inplace=False)
                                           )
                                           (2): TransformerDecoderLayer(
                                             (self_attn): MultiheadAttention(
                                               (out_proj): NonDynamicallyQuantizableLinear(in_features=500, out_features=500, bias=True)
                                             )
                                             (multihead_attn): MultiheadAttention(
                                               (out_proj): NonDynamicallyQuantizableLinear(in_features=500, out_features=500, bias=True)
                                             )
                                             (linear1): Linear(in_features=500, out_features=1024, bias=True)
                                             (dropout): Dropout(p=0.4, inplace=False)
                                             (linear2): Linear(in_features=1024, out_features=500, bias=True)
                                             (norm1): LayerNorm((500,), eps=1e-05, elementwise_affine=True)
                                             (norm2): LayerNorm((500,), eps=1e-05, elementwise_affine=True)
                                             (norm3): LayerNorm((500,), eps=1e-05, elementwise_affine=True)
                                             (activation_dropout): Dropout(p=0.4, inplace=False)
                                           )
                                           (3): TransformerDecoderLayer(
                                             (self_attn): MultiheadAttention(
                                               (out_proj): NonDynamicallyQuantizableLinear(in_features=500, out_features=500, bias=True)
                                             )
                                             (multihead_attn): MultiheadAttention(
                                               (out_proj): NonDynamicallyQuantizableLinear(in_features=500, out_features=500, bias=True)
                                             )
                                             (linear1): Linear(in_features=500, out_features=1024, bias=True)
                                             (dropout): Dropout(p=0.4, inplace=False)
                                             (linear2): Linear(in_features=1024, out_features=500, bias=True)
                                             (norm1): LayerNorm((500,), eps=1e-05, elementwise_affine=True)
                                             (norm2): LayerNorm((500,), eps=1e-05, elementwise_affine=True)
                                             (norm3): LayerNorm((500,), eps=1e-05, elementwise_affine=True)
                                             (activation_dropout): Dropout(p=0.4, inplace=False)
                                           )
                                         )
                                         (norm): LayerNorm((500,), eps=1e-05, elementwise_affine=True)
                                       )
                                       (final_out): Linear(in_features=500, out_features=70, bias=True)
                                       (dropout): Dropout(p=0.4, inplace=False)
                                     )
INFO - 11/06/22 22:40:14 - 0:00:00 - number of parameter 20354762
INFO - 11/06/22 22:40:16 - 0:00:02 - maximum training 20007 steps (2223 epochs)
INFO - 11/06/22 22:40:16 - 0:00:02 - evaluate every 44 epochs
INFO - 11/06/22 22:40:16 - 0:00:02 - At 0-th epoch with lr 0.000000.
…
