…
'g', 'h', 'i', 'j', 'k', 'l', 'm', 'n', 'o', 'p', 'q', 'r', 's', 't', 'u', 'v', 'w', 'x', 'y', 'z']
INFO - 11/06/22 18:55:10 - 0:00:00 - trg vocab ['<PAD>', '<BOS>', '<EOS>', '<UNK>', '%', ',', '-', '.', '0', '1', '2', '3', '4', '5', '6', '7', '8', '9', 'A', 'B', 'C', 'D', 'E', 'F', 'G', 'I', 'J', 'K', 'L', 'M', 'N', 'O', 'P', 'R', 'S', 'T', 'V', 'X', 'Y', 'Z', 'a', 'b', 'c', 'd', 'e', 'f', 'g', 'h', 'i', 'j', 'k', 'l', 'm', 'n', 'o', 'p', 'q', 'r', 's', 't', 'u', 'v', 'w', 'x', 'y', 'z']
INFO - 11/06/22 18:55:10 - 0:00:00 - model: Transformer(
                                       (src_embed): Embedding(69, 100, padding_idx=0)
                                       (trg_embed): Embedding(66, 100, padding_idx=0)
                                       (position_embed): SinusoidalPositionalEmbedding()
                                       (encoder): TransformerEncoder(
                                         (layers): ModuleList(
                                           (0): TransformerEncoderLayer(
                                             (self_attn): MultiheadAttention(
                                               (out_proj): NonDynamicallyQuantizableLinear(in_features=100, out_features=100, bias=True)
                                             )
                                             (linear1): Linear(in_features=100, out_features=1024, bias=True)
                                             (dropout): Dropout(p=0.4, inplace=False)
                                             (linear2): Linear(in_features=1024, out_features=100, bias=True)
                                             (norm1): LayerNorm((100,), eps=1e-05, elementwise_affine=True)
                                             (norm2): LayerNorm((100,), eps=1e-05, elementwise_affine=True)
                                             (activation_dropout): Dropout(p=0.4, inplace=False)
                                           )
                                           (1): TransformerEncoderLayer(
                                             (self_attn): MultiheadAttention(
                                               (out_proj): NonDynamicallyQuantizableLinear(in_features=100, out_features=100, bias=True)
                                             )
                                             (linear1): Linear(in_features=100, out_features=1024, bias=True)
                                             (dropout): Dropout(p=0.4, inplace=False)
                                             (linear2): Linear(in_features=1024, out_features=100, bias=True)
                                             (norm1): LayerNorm((100,), eps=1e-05, elementwise_affine=True)
                                             (norm2): LayerNorm((100,), eps=1e-05, elementwise_affine=True)
                                             (activation_dropout): Dropout(p=0.4, inplace=False)
                                           )
                                           (2): TransformerEncoderLayer(
                                             (self_attn): MultiheadAttention(
                                               (out_proj): NonDynamicallyQuantizableLinear(in_features=100, out_features=100, bias=True)
                                             )
                                             (linear1): Linear(in_features=100, out_features=1024, bias=True)
                                             (dropout): Dropout(p=0.4, inplace=False)
                                             (linear2): Linear(in_features=1024, out_features=100, bias=True)
                                             (norm1): LayerNorm((100,), eps=1e-05, elementwise_affine=True)
                                             (norm2): LayerNorm((100,), eps=1e-05, elementwise_affine=True)
                                             (activation_dropout): Dropout(p=0.4, inplace=False)
                                           )
                                           (3): TransformerEncoderLayer(
                                             (self_attn): MultiheadAttention(
                                               (out_proj): NonDynamicallyQuantizableLinear(in_features=100, out_features=100, bias=True)
                                             )
                                             (linear1): Linear(in_features=100, out_features=1024, bias=True)
                                             (dropout): Dropout(p=0.4, inplace=False)
                                             (linear2): Linear(in_features=1024, out_features=100, bias=True)
                                             (norm1): LayerNorm((100,), eps=1e-05, elementwise_affine=True)
                                             (norm2): LayerNorm((100,), eps=1e-05, elementwise_affine=True)
                                             (activation_dropout): Dropout(p=0.4, inplace=False)
                                           )
                                         )
                                         (norm): LayerNorm((100,), eps=1e-05, elementwise_affine=True)
                                       )
                                       (decoder): TransformerDecoder(
                                         (layers): ModuleList(
                                           (0): TransformerDecoderLayer(
                                             (self_attn): MultiheadAttention(
                                               (out_proj): NonDynamicallyQuantizableLinear(in_features=100, out_features=100, bias=True)
                                             )
                                             (multihead_attn): MultiheadAttention(
                                               (out_proj): NonDynamicallyQuantizableLinear(in_features=100, out_features=100, bias=True)
                                             )
                                             (linear1): Linear(in_features=100, out_features=1024, bias=True)
                                             (dropout): Dropout(p=0.4, inplace=False)
                                             (linear2): Linear(in_features=1024, out_features=100, bias=True)
                                             (norm1): LayerNorm((100,), eps=1e-05, elementwise_affine=True)
                                             (norm2): LayerNorm((100,), eps=1e-05, elementwise_affine=True)
                                             (norm3): LayerNorm((100,), eps=1e-05, elementwise_affine=True)
                                             (activation_dropout): Dropout(p=0.4, inplace=False)
                                           )
                                           (1): TransformerDecoderLayer(
                                             (self_attn): MultiheadAttention(
                                               (out_proj): NonDynamicallyQuantizableLinear(in_features=100, out_features=100, bias=True)
                                             )
                                             (multihead_attn): MultiheadAttention(
                                               (out_proj): NonDynamicallyQuantizableLinear(in_features=100, out_features=100, bias=True)
                                             )
                                             (linear1): Linear(in_features=100, out_features=1024, bias=True)
                                             (dropout): Dropout(p=0.4, inplace=False)
                                             (linear2): Linear(in_features=1024, out_features=100, bias=True)
                                             (norm1): LayerNorm((100,), eps=1e-05, elementwise_affine=True)
                                             (norm2): LayerNorm((100,), eps=1e-05, elementwise_affine=True)
                                             (norm3): LayerNorm((100,), eps=1e-05, elementwise_affine=True)
                                             (activation_dropout): Dropout(p=0.4, inplace=False)
                                           )
                                           (2): TransformerDecoderLayer(
                                             (self_attn): MultiheadAttention(
                                               (out_proj): NonDynamicallyQuantizableLinear(in_features=100, out_features=100, bias=True)
                                             )
                                             (multihead_attn): MultiheadAttention(
                                               (out_proj): NonDynamicallyQuantizableLinear(in_features=100, out_features=100, bias=True)
                                             )
                                             (linear1): Linear(in_features=100, out_features=1024, bias=True)
                                             (dropout): Dropout(p=0.4, inplace=False)
                                             (linear2): Linear(in_features=1024, out_features=100, bias=True)
                                             (norm1): LayerNorm((100,), eps=1e-05, elementwise_affine=True)
                                             (norm2): LayerNorm((100,), eps=1e-05, elementwise_affine=True)
                                             (norm3): LayerNorm((100,), eps=1e-05, elementwise_affine=True)
                                             (activation_dropout): Dropout(p=0.4, inplace=False)
                                           )
                                           (3): TransformerDecoderLayer(
                                             (self_attn): MultiheadAttention(
                                               (out_proj): NonDynamicallyQuantizableLinear(in_features=100, out_features=100, bias=True)
                                             )
                                             (multihead_attn): MultiheadAttention(
                                               (out_proj): NonDynamicallyQuantizableLinear(in_features=100, out_features=100, bias=True)
                                             )
                                             (linear1): Linear(in_features=100, out_features=1024, bias=True)
                                             (dropout): Dropout(p=0.4, inplace=False)
                                             (linear2): Linear(in_features=1024, out_features=100, bias=True)
                                             (norm1): LayerNorm((100,), eps=1e-05, elementwise_affine=True)
                                             (norm2): LayerNorm((100,), eps=1e-05, elementwise_affine=True)
                                             (norm3): LayerNorm((100,), eps=1e-05, elementwise_affine=True)
                                             (activation_dropout): Dropout(p=0.4, inplace=False)
                                           )
                                         )
                                         (norm): LayerNorm((100,), eps=1e-05, elementwise_affine=True)
                                       )
                                       (final_out): Linear(in_features=100, out_features=66, bias=True)
                                       (dropout): Dropout(p=0.4, inplace=False)
                                     )
INFO - 11/06/22 18:55:10 - 0:00:00 - number of parameter 2156758
INFO - 11/06/22 18:55:12 - 0:00:02 - maximum training 20013 steps (953 epochs)
INFO - 11/06/22 18:55:12 - 0:00:02 - evaluate every 19 epochs
INFO - 11/06/22 18:55:12 - 0:00:02 - At 0-th epoch with lr 0.000000.
…
'g', 'h', 'i', 'j', 'k', 'l', 'm', 'n', 'o', 'p', 'q', 'r', 's', 't', 'u', 'v', 'w', 'x', 'y', 'z']
INFO - 11/06/22 19:30:07 - 0:00:00 - trg vocab ['<PAD>', '<BOS>', '<EOS>', '<UNK>', '%', ',', '-', '.', '0', '1', '2', '3', '4', '5', '6', '7', '8', '9', 'A', 'B', 'C', 'D', 'E', 'F', 'G', 'I', 'J', 'K', 'L', 'M', 'N', 'O', 'P', 'R', 'S', 'T', 'V', 'X', 'Y', 'Z', 'a', 'b', 'c', 'd', 'e', 'f', 'g', 'h', 'i', 'j', 'k', 'l', 'm', 'n', 'o', 'p', 'q', 'r', 's', 't', 'u', 'v', 'w', 'x', 'y', 'z']
INFO - 11/06/22 19:30:07 - 0:00:00 - model: Transformer(
                                       (src_embed): Embedding(69, 200, padding_idx=0)
                                       (trg_embed): Embedding(66, 200, padding_idx=0)
                                       (position_embed): SinusoidalPositionalEmbedding()
                                       (encoder): TransformerEncoder(
                                         (layers): ModuleList(
                                           (0): TransformerEncoderLayer(
                                             (self_attn): MultiheadAttention(
                                               (out_proj): NonDynamicallyQuantizableLinear(in_features=200, out_features=200, bias=True)
                                             )
                                             (linear1): Linear(in_features=200, out_features=1024, bias=True)
                                             (dropout): Dropout(p=0.4, inplace=False)
                                             (linear2): Linear(in_features=1024, out_features=200, bias=True)
                                             (norm1): LayerNorm((200,), eps=1e-05, elementwise_affine=True)
                                             (norm2): LayerNorm((200,), eps=1e-05, elementwise_affine=True)
                                             (activation_dropout): Dropout(p=0.4, inplace=False)
                                           )
                                           (1): TransformerEncoderLayer(
                                             (self_attn): MultiheadAttention(
                                               (out_proj): NonDynamicallyQuantizableLinear(in_features=200, out_features=200, bias=True)
                                             )
                                             (linear1): Linear(in_features=200, out_features=1024, bias=True)
                                             (dropout): Dropout(p=0.4, inplace=False)
                                             (linear2): Linear(in_features=1024, out_features=200, bias=True)
                                             (norm1): LayerNorm((200,), eps=1e-05, elementwise_affine=True)
                                             (norm2): LayerNorm((200,), eps=1e-05, elementwise_affine=True)
                                             (activation_dropout): Dropout(p=0.4, inplace=False)
                                           )
                                           (2): TransformerEncoderLayer(
                                             (self_attn): MultiheadAttention(
                                               (out_proj): NonDynamicallyQuantizableLinear(in_features=200, out_features=200, bias=True)
                                             )
                                             (linear1): Linear(in_features=200, out_features=1024, bias=True)
                                             (dropout): Dropout(p=0.4, inplace=False)
                                             (linear2): Linear(in_features=1024, out_features=200, bias=True)
                                             (norm1): LayerNorm((200,), eps=1e-05, elementwise_affine=True)
                                             (norm2): LayerNorm((200,), eps=1e-05, elementwise_affine=True)
                                             (activation_dropout): Dropout(p=0.4, inplace=False)
                                           )
                                           (3): TransformerEncoderLayer(
                                             (self_attn): MultiheadAttention(
                                               (out_proj): NonDynamicallyQuantizableLinear(in_features=200, out_features=200, bias=True)
                                             )
                                             (linear1): Linear(in_features=200, out_features=1024, bias=True)
                                             (dropout): Dropout(p=0.4, inplace=False)
                                             (linear2): Linear(in_features=1024, out_features=200, bias=True)
                                             (norm1): LayerNorm((200,), eps=1e-05, elementwise_affine=True)
                                             (norm2): LayerNorm((200,), eps=1e-05, elementwise_affine=True)
                                             (activation_dropout): Dropout(p=0.4, inplace=False)
                                           )
                                         )
                                         (norm): LayerNorm((200,), eps=1e-05, elementwise_affine=True)
                                       )
                                       (decoder): TransformerDecoder(
                                         (layers): ModuleList(
                                           (0): TransformerDecoderLayer(
                                             (self_attn): MultiheadAttention(
                                               (out_proj): NonDynamicallyQuantizableLinear(in_features=200, out_features=200, bias=True)
                                             )
                                             (multihead_attn): MultiheadAttention(
                                               (out_proj): NonDynamicallyQuantizableLinear(in_features=200, out_features=200, bias=True)
                                             )
                                             (linear1): Linear(in_features=200, out_features=1024, bias=True)
                                             (dropout): Dropout(p=0.4, inplace=False)
                                             (linear2): Linear(in_features=1024, out_features=200, bias=True)
                                             (norm1): LayerNorm((200,), eps=1e-05, elementwise_affine=True)
                                             (norm2): LayerNorm((200,), eps=1e-05, elementwise_affine=True)
                                             (norm3): LayerNorm((200,), eps=1e-05, elementwise_affine=True)
                                             (activation_dropout): Dropout(p=0.4, inplace=False)
                                           )
                                           (1): TransformerDecoderLayer(
                                             (self_attn): MultiheadAttention(
                                               (out_proj): NonDynamicallyQuantizableLinear(in_features=200, out_features=200, bias=True)
                                             )
                                             (multihead_attn): MultiheadAttention(
                                               (out_proj): NonDynamicallyQuantizableLinear(in_features=200, out_features=200, bias=True)
                                             )
                                             (linear1): Linear(in_features=200, out_features=1024, bias=True)
                                             (dropout): Dropout(p=0.4, inplace=False)
                                             (linear2): Linear(in_features=1024, out_features=200, bias=True)
                                             (norm1): LayerNorm((200,), eps=1e-05, elementwise_affine=True)
                                             (norm2): LayerNorm((200,), eps=1e-05, elementwise_affine=True)
                                             (norm3): LayerNorm((200,), eps=1e-05, elementwise_affine=True)
                                             (activation_dropout): Dropout(p=0.4, inplace=False)
                                           )
                                           (2): TransformerDecoderLayer(
                                             (self_attn): MultiheadAttention(
                                               (out_proj): NonDynamicallyQuantizableLinear(in_features=200, out_features=200, bias=True)
                                             )
                                             (multihead_attn): MultiheadAttention(
                                               (out_proj): NonDynamicallyQuantizableLinear(in_features=200, out_features=200, bias=True)
                                             )
                                             (linear1): Linear(in_features=200, out_features=1024, bias=True)
                                             (dropout): Dropout(p=0.4, inplace=False)
                                             (linear2): Linear(in_features=1024, out_features=200, bias=True)
                                             (norm1): LayerNorm((200,), eps=1e-05, elementwise_affine=True)
                                             (norm2): LayerNorm((200,), eps=1e-05, elementwise_affine=True)
                                             (norm3): LayerNorm((200,), eps=1e-05, elementwise_affine=True)
                                             (activation_dropout): Dropout(p=0.4, inplace=False)
                                           )
                                           (3): TransformerDecoderLayer(
                                             (self_attn): MultiheadAttention(
                                               (out_proj): NonDynamicallyQuantizableLinear(in_features=200, out_features=200, bias=True)
                                             )
                                             (multihead_attn): MultiheadAttention(
                                               (out_proj): NonDynamicallyQuantizableLinear(in_features=200, out_features=200, bias=True)
                                             )
                                             (linear1): Linear(in_features=200, out_features=1024, bias=True)
                                             (dropout): Dropout(p=0.4, inplace=False)
                                             (linear2): Linear(in_features=1024, out_features=200, bias=True)
                                             (norm1): LayerNorm((200,), eps=1e-05, elementwise_affine=True)
                                             (norm2): LayerNorm((200,), eps=1e-05, elementwise_affine=True)
                                             (norm3): LayerNorm((200,), eps=1e-05, elementwise_affine=True)
                                             (activation_dropout): Dropout(p=0.4, inplace=False)
                                           )
                                         )
                                         (norm): LayerNorm((200,), eps=1e-05, elementwise_affine=True)
                                       )
                                       (final_out): Linear(in_features=200, out_features=66, bias=True)
                                       (dropout): Dropout(p=0.4, inplace=False)
                                     )
INFO - 11/06/22 19:30:07 - 0:00:00 - number of parameter 5265258
INFO - 11/06/22 19:30:10 - 0:00:02 - maximum training 20013 steps (953 epochs)
INFO - 11/06/22 19:30:10 - 0:00:02 - evaluate every 19 epochs
INFO - 11/06/22 19:30:10 - 0:00:02 - At 0-th epoch with lr 0.000000.
…
'g', 'h', 'i', 'j', 'k', 'l', 'm', 'n', 'o', 'p', 'q', 'r', 's', 't', 'u', 'v', 'w', 'x', 'y', 'z']
INFO - 11/06/22 20:32:47 - 0:00:00 - trg vocab ['<PAD>', '<BOS>', '<EOS>', '<UNK>', '%', ',', '-', '.', '0', '1', '2', '3', '4', '5', '6', '7', '8', '9', 'A', 'B', 'C', 'D', 'E', 'F', 'G', 'I', 'J', 'K', 'L', 'M', 'N', 'O', 'P', 'R', 'S', 'T', 'V', 'X', 'Y', 'Z', 'a', 'b', 'c', 'd', 'e', 'f', 'g', 'h', 'i', 'j', 'k', 'l', 'm', 'n', 'o', 'p', 'q', 'r', 's', 't', 'u', 'v', 'w', 'x', 'y', 'z']
INFO - 11/06/22 20:32:47 - 0:00:00 - model: Transformer(
                                       (src_embed): Embedding(69, 300, padding_idx=0)
                                       (trg_embed): Embedding(66, 300, padding_idx=0)
                                       (position_embed): SinusoidalPositionalEmbedding()
                                       (encoder): TransformerEncoder(
                                         (layers): ModuleList(
                                           (0): TransformerEncoderLayer(
                                             (self_attn): MultiheadAttention(
                                               (out_proj): NonDynamicallyQuantizableLinear(in_features=300, out_features=300, bias=True)
                                             )
                                             (linear1): Linear(in_features=300, out_features=1024, bias=True)
                                             (dropout): Dropout(p=0.4, inplace=False)
                                             (linear2): Linear(in_features=1024, out_features=300, bias=True)
                                             (norm1): LayerNorm((300,), eps=1e-05, elementwise_affine=True)
                                             (norm2): LayerNorm((300,), eps=1e-05, elementwise_affine=True)
                                             (activation_dropout): Dropout(p=0.4, inplace=False)
                                           )
                                           (1): TransformerEncoderLayer(
                                             (self_attn): MultiheadAttention(
                                               (out_proj): NonDynamicallyQuantizableLinear(in_features=300, out_features=300, bias=True)
                                             )
                                             (linear1): Linear(in_features=300, out_features=1024, bias=True)
                                             (dropout): Dropout(p=0.4, inplace=False)
                                             (linear2): Linear(in_features=1024, out_features=300, bias=True)
                                             (norm1): LayerNorm((300,), eps=1e-05, elementwise_affine=True)
                                             (norm2): LayerNorm((300,), eps=1e-05, elementwise_affine=True)
                                             (activation_dropout): Dropout(p=0.4, inplace=False)
                                           )
                                           (2): TransformerEncoderLayer(
                                             (self_attn): MultiheadAttention(
                                               (out_proj): NonDynamicallyQuantizableLinear(in_features=300, out_features=300, bias=True)
                                             )
                                             (linear1): Linear(in_features=300, out_features=1024, bias=True)
                                             (dropout): Dropout(p=0.4, inplace=False)
                                             (linear2): Linear(in_features=1024, out_features=300, bias=True)
                                             (norm1): LayerNorm((300,), eps=1e-05, elementwise_affine=True)
                                             (norm2): LayerNorm((300,), eps=1e-05, elementwise_affine=True)
                                             (activation_dropout): Dropout(p=0.4, inplace=False)
                                           )
                                           (3): TransformerEncoderLayer(
                                             (self_attn): MultiheadAttention(
                                               (out_proj): NonDynamicallyQuantizableLinear(in_features=300, out_features=300, bias=True)
                                             )
                                             (linear1): Linear(in_features=300, out_features=1024, bias=True)
                                             (dropout): Dropout(p=0.4, inplace=False)
                                             (linear2): Linear(in_features=1024, out_features=300, bias=True)
                                             (norm1): LayerNorm((300,), eps=1e-05, elementwise_affine=True)
                                             (norm2): LayerNorm((300,), eps=1e-05, elementwise_affine=True)
                                             (activation_dropout): Dropout(p=0.4, inplace=False)
                                           )
                                         )
                                         (norm): LayerNorm((300,), eps=1e-05, elementwise_affine=True)
                                       )
                                       (decoder): TransformerDecoder(
                                         (layers): ModuleList(
                                           (0): TransformerDecoderLayer(
                                             (self_attn): MultiheadAttention(
                                               (out_proj): NonDynamicallyQuantizableLinear(in_features=300, out_features=300, bias=True)
                                             )
                                             (multihead_attn): MultiheadAttention(
                                               (out_proj): NonDynamicallyQuantizableLinear(in_features=300, out_features=300, bias=True)
                                             )
                                             (linear1): Linear(in_features=300, out_features=1024, bias=True)
                                             (dropout): Dropout(p=0.4, inplace=False)
                                             (linear2): Linear(in_features=1024, out_features=300, bias=True)
                                             (norm1): LayerNorm((300,), eps=1e-05, elementwise_affine=True)
                                             (norm2): LayerNorm((300,), eps=1e-05, elementwise_affine=True)
                                             (norm3): LayerNorm((300,), eps=1e-05, elementwise_affine=True)
                                             (activation_dropout): Dropout(p=0.4, inplace=False)
                                           )
                                           (1): TransformerDecoderLayer(
                                             (self_attn): MultiheadAttention(
                                               (out_proj): NonDynamicallyQuantizableLinear(in_features=300, out_features=300, bias=True)
                                             )
                                             (multihead_attn): MultiheadAttention(
                                               (out_proj): NonDynamicallyQuantizableLinear(in_features=300, out_features=300, bias=True)
                                             )
                                             (linear1): Linear(in_features=300, out_features=1024, bias=True)
                                             (dropout): Dropout(p=0.4, inplace=False)
                                             (linear2): Linear(in_features=1024, out_features=300, bias=True)
                                             (norm1): LayerNorm((300,), eps=1e-05, elementwise_affine=True)
                                             (norm2): LayerNorm((300,), eps=1e-05, elementwise_affine=True)
                                             (norm3): LayerNorm((300,), eps=1e-05, elementwise_affine=True)
                                             (activation_dropout): Dropout(p=0.4, inplace=False)
                                           )
                                           (2): TransformerDecoderLayer(
                                             (self_attn): MultiheadAttention(
                                               (out_proj): NonDynamicallyQuantizableLinear(in_features=300, out_features=300, bias=True)
                                             )
                                             (multihead_attn): MultiheadAttention(
                                               (out_proj): NonDynamicallyQuantizableLinear(in_features=300, out_features=300, bias=True)
                                             )
                                             (linear1): Linear(in_features=300, out_features=1024, bias=True)
                                             (dropout): Dropout(p=0.4, inplace=False)
                                             (linear2): Linear(in_features=1024, out_features=300, bias=True)
                                             (norm1): LayerNorm((300,), eps=1e-05, elementwise_affine=True)
                                             (norm2): LayerNorm((300,), eps=1e-05, elementwise_affine=True)
                                             (norm3): LayerNorm((300,), eps=1e-05, elementwise_affine=True)
                                             (activation_dropout): Dropout(p=0.4, inplace=False)
                                           )
                                           (3): TransformerDecoderLayer(
                                             (self_attn): MultiheadAttention(
                                               (out_proj): NonDynamicallyQuantizableLinear(in_features=300, out_features=300, bias=True)
                                             )
                                             (multihead_attn): MultiheadAttention(
                                               (out_proj): NonDynamicallyQuantizableLinear(in_features=300, out_features=300, bias=True)
                                             )
                                             (linear1): Linear(in_features=300, out_features=1024, bias=True)
                                             (dropout): Dropout(p=0.4, inplace=False)
                                             (linear2): Linear(in_features=1024, out_features=300, bias=True)
                                             (norm1): LayerNorm((300,), eps=1e-05, elementwise_affine=True)
                                             (norm2): LayerNorm((300,), eps=1e-05, elementwise_affine=True)
                                             (norm3): LayerNorm((300,), eps=1e-05, elementwise_affine=True)
                                             (activation_dropout): Dropout(p=0.4, inplace=False)
                                           )
                                         )
                                         (norm): LayerNorm((300,), eps=1e-05, elementwise_affine=True)
                                       )
                                       (final_out): Linear(in_features=300, out_features=66, bias=True)
                                       (dropout): Dropout(p=0.4, inplace=False)
                                     )
INFO - 11/06/22 20:32:47 - 0:00:00 - number of parameter 9333758
INFO - 11/06/22 20:32:49 - 0:00:03 - maximum training 20013 steps (953 epochs)
INFO - 11/06/22 20:32:49 - 0:00:03 - evaluate every 19 epochs
INFO - 11/06/22 20:32:49 - 0:00:03 - At 0-th epoch with lr 0.000000.
…
'g', 'h', 'i', 'j', 'k', 'l', 'm', 'n', 'o', 'p', 'q', 'r', 's', 't', 'u', 'v', 'w', 'x', 'y', 'z']
INFO - 11/06/22 21:45:59 - 0:00:00 - trg vocab ['<PAD>', '<BOS>', '<EOS>', '<UNK>', '%', ',', '-', '.', '0', '1', '2', '3', '4', '5', '6', '7', '8', '9', 'A', 'B', 'C', 'D', 'E', 'F', 'G', 'I', 'J', 'K', 'L', 'M', 'N', 'O', 'P', 'R', 'S', 'T', 'V', 'X', 'Y', 'Z', 'a', 'b', 'c', 'd', 'e', 'f', 'g', 'h', 'i', 'j', 'k', 'l', 'm', 'n', 'o', 'p', 'q', 'r', 's', 't', 'u', 'v', 'w', 'x', 'y', 'z']
INFO - 11/06/22 21:45:59 - 0:00:01 - model: Transformer(
                                       (src_embed): Embedding(69, 400, padding_idx=0)
                                       (trg_embed): Embedding(66, 400, padding_idx=0)
                                       (position_embed): SinusoidalPositionalEmbedding()
                                       (encoder): TransformerEncoder(
                                         (layers): ModuleList(
                                           (0): TransformerEncoderLayer(
                                             (self_attn): MultiheadAttention(
                                               (out_proj): NonDynamicallyQuantizableLinear(in_features=400, out_features=400, bias=True)
                                             )
                                             (linear1): Linear(in_features=400, out_features=1024, bias=True)
                                             (dropout): Dropout(p=0.4, inplace=False)
                                             (linear2): Linear(in_features=1024, out_features=400, bias=True)
                                             (norm1): LayerNorm((400,), eps=1e-05, elementwise_affine=True)
                                             (norm2): LayerNorm((400,), eps=1e-05, elementwise_affine=True)
                                             (activation_dropout): Dropout(p=0.4, inplace=False)
                                           )
                                           (1): TransformerEncoderLayer(
                                             (self_attn): MultiheadAttention(
                                               (out_proj): NonDynamicallyQuantizableLinear(in_features=400, out_features=400, bias=True)
                                             )
                                             (linear1): Linear(in_features=400, out_features=1024, bias=True)
                                             (dropout): Dropout(p=0.4, inplace=False)
                                             (linear2): Linear(in_features=1024, out_features=400, bias=True)
                                             (norm1): LayerNorm((400,), eps=1e-05, elementwise_affine=True)
                                             (norm2): LayerNorm((400,), eps=1e-05, elementwise_affine=True)
                                             (activation_dropout): Dropout(p=0.4, inplace=False)
                                           )
                                           (2): TransformerEncoderLayer(
                                             (self_attn): MultiheadAttention(
                                               (out_proj): NonDynamicallyQuantizableLinear(in_features=400, out_features=400, bias=True)
                                             )
                                             (linear1): Linear(in_features=400, out_features=1024, bias=True)
                                             (dropout): Dropout(p=0.4, inplace=False)
                                             (linear2): Linear(in_features=1024, out_features=400, bias=True)
                                             (norm1): LayerNorm((400,), eps=1e-05, elementwise_affine=True)
                                             (norm2): LayerNorm((400,), eps=1e-05, elementwise_affine=True)
                                             (activation_dropout): Dropout(p=0.4, inplace=False)
                                           )
                                           (3): TransformerEncoderLayer(
                                             (self_attn): MultiheadAttention(
                                               (out_proj): NonDynamicallyQuantizableLinear(in_features=400, out_features=400, bias=True)
                                             )
                                             (linear1): Linear(in_features=400, out_features=1024, bias=True)
                                             (dropout): Dropout(p=0.4, inplace=False)
                                             (linear2): Linear(in_features=1024, out_features=400, bias=True)
                                             (norm1): LayerNorm((400,), eps=1e-05, elementwise_affine=True)
                                             (norm2): LayerNorm((400,), eps=1e-05, elementwise_affine=True)
                                             (activation_dropout): Dropout(p=0.4, inplace=False)
                                           )
                                         )
                                         (norm): LayerNorm((400,), eps=1e-05, elementwise_affine=True)
                                       )
                                       (decoder): TransformerDecoder(
                                         (layers): ModuleList(
                                           (0): TransformerDecoderLayer(
                                             (self_attn): MultiheadAttention(
                                               (out_proj): NonDynamicallyQuantizableLinear(in_features=400, out_features=400, bias=True)
                                             )
                                             (multihead_attn): MultiheadAttention(
                                               (out_proj): NonDynamicallyQuantizableLinear(in_features=400, out_features=400, bias=True)
                                             )
                                             (linear1): Linear(in_features=400, out_features=1024, bias=True)
                                             (dropout): Dropout(p=0.4, inplace=False)
                                             (linear2): Linear(in_features=1024, out_features=400, bias=True)
                                             (norm1): LayerNorm((400,), eps=1e-05, elementwise_affine=True)
                                             (norm2): LayerNorm((400,), eps=1e-05, elementwise_affine=True)
                                             (norm3): LayerNorm((400,), eps=1e-05, elementwise_affine=True)
                                             (activation_dropout): Dropout(p=0.4, inplace=False)
                                           )
                                           (1): TransformerDecoderLayer(
                                             (self_attn): MultiheadAttention(
                                               (out_proj): NonDynamicallyQuantizableLinear(in_features=400, out_features=400, bias=True)
                                             )
                                             (multihead_attn): MultiheadAttention(
                                               (out_proj): NonDynamicallyQuantizableLinear(in_features=400, out_features=400, bias=True)
                                             )
                                             (linear1): Linear(in_features=400, out_features=1024, bias=True)
                                             (dropout): Dropout(p=0.4, inplace=False)
                                             (linear2): Linear(in_features=1024, out_features=400, bias=True)
                                             (norm1): LayerNorm((400,), eps=1e-05, elementwise_affine=True)
                                             (norm2): LayerNorm((400,), eps=1e-05, elementwise_affine=True)
                                             (norm3): LayerNorm((400,), eps=1e-05, elementwise_affine=True)
                                             (activation_dropout): Dropout(p=0.4, inplace=False)
                                           )
                                           (2): TransformerDecoderLayer(
                                             (self_attn): MultiheadAttention(
                                               (out_proj): NonDynamicallyQuantizableLinear(in_features=400, out_features=400, bias=True)
                                             )
                                             (multihead_attn): MultiheadAttention(
                                               (out_proj): NonDynamicallyQuantizableLinear(in_features=400, out_features=400, bias=True)
                                             )
                                             (linear1): Linear(in_features=400, out_features=1024, bias=True)
                                             (dropout): Dropout(p=0.4, inplace=False)
                                             (linear2): Linear(in_features=1024, out_features=400, bias=True)
                                             (norm1): LayerNorm((400,), eps=1e-05, elementwise_affine=True)
                                             (norm2): LayerNorm((400,), eps=1e-05, elementwise_affine=True)
                                             (norm3): LayerNorm((400,), eps=1e-05, elementwise_affine=True)
                                             (activation_dropout): Dropout(p=0.4, inplace=False)
                                           )
                                           (3): TransformerDecoderLayer(
                                             (self_attn): MultiheadAttention(
                                               (out_proj): NonDynamicallyQuantizableLinear(in_features=400, out_features=400, bias=True)
                                             )
                                             (multihead_attn): MultiheadAttention(
                                               (out_proj): NonDynamicallyQuantizableLinear(in_features=400, out_features=400, bias=True)
                                             )
                                             (linear1): Linear(in_features=400, out_features=1024, bias=True)
                                             (dropout): Dropout(p=0.4, inplace=False)
                                             (linear2): Linear(in_features=1024, out_features=400, bias=True)
                                             (norm1): LayerNorm((400,), eps=1e-05, elementwise_affine=True)
                                             (norm2): LayerNorm((400,), eps=1e-05, elementwise_affine=True)
                                             (norm3): LayerNorm((400,), eps=1e-05, elementwise_affine=True)
                                             (activation_dropout): Dropout(p=0.4, inplace=False)
                                           )
                                         )
                                         (norm): LayerNorm((400,), eps=1e-05, elementwise_affine=True)
                                       )
                                       (final_out): Linear(in_features=400, out_features=66, bias=True)
                                       (dropout): Dropout(p=0.4, inplace=False)
                                     )
INFO - 11/06/22 21:45:59 - 0:00:01 - number of parameter 14362258
INFO - 11/06/22 21:46:02 - 0:00:03 - maximum training 20013 steps (953 epochs)
INFO - 11/06/22 21:46:02 - 0:00:03 - evaluate every 19 epochs
INFO - 11/06/22 21:46:02 - 0:00:03 - At 0-th epoch with lr 0.000000.
…
'g', 'h', 'i', 'j', 'k', 'l', 'm', 'n', 'o', 'p', 'q', 'r', 's', 't', 'u', 'v', 'w', 'x', 'y', 'z']
INFO - 11/06/22 23:26:29 - 0:00:00 - trg vocab ['<PAD>', '<BOS>', '<EOS>', '<UNK>', '%', ',', '-', '.', '0', '1', '2', '3', '4', '5', '6', '7', '8', '9', 'A', 'B', 'C', 'D', 'E', 'F', 'G', 'I', 'J', 'K', 'L', 'M', 'N', 'O', 'P', 'R', 'S', 'T', 'V', 'X', 'Y', 'Z', 'a', 'b', 'c', 'd', 'e', 'f', 'g', 'h', 'i', 'j', 'k', 'l', 'm', 'n', 'o', 'p', 'q', 'r', 's', 't', 'u', 'v', 'w', 'x', 'y', 'z']
INFO - 11/06/22 23:26:30 - 0:00:01 - model: Transformer(
                                       (src_embed): Embedding(69, 500, padding_idx=0)
                                       (trg_embed): Embedding(66, 500, padding_idx=0)
                                       (position_embed): SinusoidalPositionalEmbedding()
                                       (encoder): TransformerEncoder(
                                         (layers): ModuleList(
                                           (0): TransformerEncoderLayer(
                                             (self_attn): MultiheadAttention(
                                               (out_proj): NonDynamicallyQuantizableLinear(in_features=500, out_features=500, bias=True)
                                             )
                                             (linear1): Linear(in_features=500, out_features=1024, bias=True)
                                             (dropout): Dropout(p=0.4, inplace=False)
                                             (linear2): Linear(in_features=1024, out_features=500, bias=True)
                                             (norm1): LayerNorm((500,), eps=1e-05, elementwise_affine=True)
                                             (norm2): LayerNorm((500,), eps=1e-05, elementwise_affine=True)
                                             (activation_dropout): Dropout(p=0.4, inplace=False)
                                           )
                                           (1): TransformerEncoderLayer(
                                             (self_attn): MultiheadAttention(
                                               (out_proj): NonDynamicallyQuantizableLinear(in_features=500, out_features=500, bias=True)
                                             )
                                             (linear1): Linear(in_features=500, out_features=1024, bias=True)
                                             (dropout): Dropout(p=0.4, inplace=False)
                                             (linear2): Linear(in_features=1024, out_features=500, bias=True)
                                             (norm1): LayerNorm((500,), eps=1e-05, elementwise_affine=True)
                                             (norm2): LayerNorm((500,), eps=1e-05, elementwise_affine=True)
                                             (activation_dropout): Dropout(p=0.4, inplace=False)
                                           )
                                           (2): TransformerEncoderLayer(
                                             (self_attn): MultiheadAttention(
                                               (out_proj): NonDynamicallyQuantizableLinear(in_features=500, out_features=500, bias=True)
                                             )
                                             (linear1): Linear(in_features=500, out_features=1024, bias=True)
                                             (dropout): Dropout(p=0.4, inplace=False)
                                             (linear2): Linear(in_features=1024, out_features=500, bias=True)
                                             (norm1): LayerNorm((500,), eps=1e-05, elementwise_affine=True)
                                             (norm2): LayerNorm((500,), eps=1e-05, elementwise_affine=True)
                                             (activation_dropout): Dropout(p=0.4, inplace=False)
                                           )
                                           (3): TransformerEncoderLayer(
                                             (self_attn): MultiheadAttention(
                                               (out_proj): NonDynamicallyQuantizableLinear(in_features=500, out_features=500, bias=True)
                                             )
                                             (linear1): Linear(in_features=500, out_features=1024, bias=True)
                                             (dropout): Dropout(p=0.4, inplace=False)
                                             (linear2): Linear(in_features=1024, out_features=500, bias=True)
                                             (norm1): LayerNorm((500,), eps=1e-05, elementwise_affine=True)
                                             (norm2): LayerNorm((500,), eps=1e-05, elementwise_affine=True)
                                             (activation_dropout): Dropout(p=0.4, inplace=False)
                                           )
                                         )
                                         (norm): LayerNorm((500,), eps=1e-05, elementwise_affine=True)
                                       )
                                       (decoder): TransformerDecoder(
                                         (layers): ModuleList(
                                           (0): TransformerDecoderLayer(
                                             (self_attn): MultiheadAttention(
                                               (out_proj): NonDynamicallyQuantizableLinear(in_features=500, out_features=500, bias=True)
                                             )
                                             (multihead_attn): MultiheadAttention(
                                               (out_proj): NonDynamicallyQuantizableLinear(in_features=500, out_features=500, bias=True)
                                             )
                                             (linear1): Linear(in_features=500, out_features=1024, bias=True)
                                             (dropout): Dropout(p=0.4, inplace=False)
                                             (linear2): Linear(in_features=1024, out_features=500, bias=True)
                                             (norm1): LayerNorm((500,), eps=1e-05, elementwise_affine=True)
                                             (norm2): LayerNorm((500,), eps=1e-05, elementwise_affine=True)
                                             (norm3): LayerNorm((500,), eps=1e-05, elementwise_affine=True)
                                             (activation_dropout): Dropout(p=0.4, inplace=False)
                                           )
                                           (1): TransformerDecoderLayer(
                                             (self_attn): MultiheadAttention(
                                               (out_proj): NonDynamicallyQuantizableLinear(in_features=500, out_features=500, bias=True)
                                             )
                                             (multihead_attn): MultiheadAttention(
                                               (out_proj): NonDynamicallyQuantizableLinear(in_features=500, out_features=500, bias=True)
                                             )
                                             (linear1): Linear(in_features=500, out_features=1024, bias=True)
                                             (dropout): Dropout(p=0.4, inplace=False)
                                             (linear2): Linear(in_features=1024, out_features=500, bias=True)
                                             (norm1): LayerNorm((500,), eps=1e-05, elementwise_affine=True)
                                             (norm2): LayerNorm((500,), eps=1e-05, elementwise_affine=True)
                                             (norm3): LayerNorm((500,), eps=1e-05, elementwise_affine=True)
                                             (activation_dropout): Dropout(p=0.4, inplace=False)
                                           )
                                           (2): TransformerDecoderLayer(
                                             (self_attn): MultiheadAttention(
                                               (out_proj): NonDynamicallyQuantizableLinear(in_features=500, out_features=500, bias=True)
                                             )
                                             (multihead_attn): MultiheadAttention(
                                               (out_proj): NonDynamicallyQuantizableLinear(in_features=500, out_features=500, bias=True)
                                             )
                                             (linear1): Linear(in_features=500, out_features=1024, bias=True)
                                             (dropout): Dropout(p=0.4, inplace=False)
                                             (linear2): Linear(in_features=1024, out_features=500, bias=True)
                                             (norm1): LayerNorm((500,), eps=1e-05, elementwise_affine=True)
                                             (norm2): LayerNorm((500,), eps=1e-05, elementwise_affine=True)
                                             (norm3): LayerNorm((500,), eps=1e-05, elementwise_affine=True)
                                             (activation_dropout): Dropout(p=0.4, inplace=False)
                                           )
                                           (3): TransformerDecoderLayer(
                                             (self_attn): MultiheadAttention(
                                               (out_proj): NonDynamicallyQuantizableLinear(in_features=500, out_features=500, bias=True)
                                             )
                                             (multihead_attn): MultiheadAttention(
                                               (out_proj): NonDynamicallyQuantizableLinear(in_features=500, out_features=500, bias=True)
                                             )
                                             (linear1): Linear(in_features=500, out_features=1024, bias=True)
                                             (dropout): Dropout(p=0.4, inplace=False)
                                             (linear2): Linear(in_features=1024, out_features=500, bias=True)
                                             (norm1): LayerNorm((500,), eps=1e-05, elementwise_affine=True)
                                             (norm2): LayerNorm((500,), eps=1e-05, elementwise_affine=True)
                                             (norm3): LayerNorm((500,), eps=1e-05, elementwise_affine=True)
                                             (activation_dropout): Dropout(p=0.4, inplace=False)
                                           )
                                         )
                                         (norm): LayerNorm((500,), eps=1e-05, elementwise_affine=True)
                                       )
                                       (final_out): Linear(in_features=500, out_features=66, bias=True)
                                       (dropout): Dropout(p=0.4, inplace=False)
                                     )
INFO - 11/06/22 23:26:30 - 0:00:01 - number of parameter 20350758
INFO - 11/06/22 23:26:32 - 0:00:03 - maximum training 20013 steps (953 epochs)
INFO - 11/06/22 23:26:32 - 0:00:03 - evaluate every 19 epochs
INFO - 11/06/22 23:26:32 - 0:00:03 - At 0-th epoch with lr 0.000000.
…
